python_version/deep-learning/model.pth (torch, 79549 bytes, 6 tensors)

net.0.weight f4 [128, 16]
00000000: d7ea 143f 876b 913a 6764 883f da3a 95be
00000010: a5ab 28bd 0f0b 263d 28cd ce3c 3c3f 783f
00000020: 2df3 423e bb8c 0b3f 1c38 bf3f 2959 30c0
00000030: b340 c43f 2f83 b33e 863c a63d 9fba 343f
00000040: c863 eebf ee96 323f 624a 99be e9a5 093f
00000050: 39fd e9bf b0d9 f1be 5556 033f 8c3d a93f
00000060: 3d42 27c0 225b d53d 328f 823f 28e1 ce3e
00000070: 337a c9bf c6e9 2a3e 3d11 22bf b7d1 3e3f
00000080: 2b69 373d 279b 783d edf0 1d3e 1cbb afbd
00000090: f214 dc3d b39b 11be 7f8e 67bd 02dd dcbd
000000a0: 685b 033e 8f18 94bd 2b48 163e 652f 423e
000000b0: 8dd1 e93c 7edb ddbc 4895 45be 60a4 4bbe
000000c0: 6d34 193e e390 6fbf cf69 cbbe 613f ef3e
000000d0: bbd5 9bbe 67ce 1abf c431 9bbf 80f3 cfbf
000000e0: 1ead 1e3d 0c4d 723f 773a 96bd 4207 523f
000000f0: 68b4 6d3d 6c8c a73f 1f41 a1bf 6ae0 1c3f
00000100: ebe3 b1be 0f0a 1dc0 e216 47bf c727 213f
00000110: 2dfd a83f 8706 44bf 822a 73bd 5948 fd3e
00000120: 683e 9fbf 9243 0fbf 94a4 8b3e 7670 2a3f
00000130: 778a 38be c1ec 7bbe b57f 48be a48e 1b3f
00000140: 3689 5c3e 8504 743f 540c 38be 861f 423f
00000150: 568c 1b3f 3d90 253f 4dc0 c0be 0a4c a53f
00000160: aef2 e1be 02b1 0cbf 3168 24bf ede6 f83e
00000170: 538d 3a3f 6b0c 78bf d7b5 c5bf 3d6d 39be
00000180: a072 b9be 9a8f f8be 2c00 a83e bef4 d13f
00000190: c0e6 873f 7011 3dbf 2f38 4dbf 4392 3b3e
000001a0: 3ca2 b53e 10fb be3e 7e10 a4bf d00d 22c0
000001b0: 18d2 56bf 5b10 873f 9bff 6f3f 6fd4 563f
000001c0: 0fab 8bbf d5f0 efbf 98a1 80bf d7d3 16bf
000001d0: 0280 5e3e a692 f4be b7da 943f bb6e 2640
000001e0: 8de8 f5bf 40ea 70be 3a7d 07bf c990 9abe
000001f0: cc4d 9cbf 6386 733f 975a c03f 088c 7f3f
00000200: c7c7 0ebe 00aa 0c3e d23c 7cbe 1e2a c83c
00000210: 9a76 44bb e358 56be 3f7f e43d eabb 93bd
00000220: b785 d1bd a49c 25bd 86fd ac3d 7954 74bd
00000230: e71b 10bd 74f3 3fbe ee0e 8abe aabd ddbd
00000240: 242f 8dbe 511a 863f 05b2 403e 8856 a03e
00000250: 69ca 7ebf 2af1 303f e61d dcbf 32d0 8ebf
00000260: d230 a4bf 16d3 4a3f e619 0bbf feec 4bbe
00000270: 6345 79be 4fbd 9b3f 0255 1bbf ee98 58be
00000280: 5bb2 ae3f ed6e b93f 44ec 3a3f 97c1 a53f
00000290: 0118 1ebe bd80 34bf 036b 44bf 9097 25bf
000002a0: f5a6 a33e 18ee 7ebf e18f 9f3e 730d a9bf
000002b0: 66bc 6ec0 55c7 b1bf 39f5 13bf c888 803f
000002c0: a405 803e 8348 81bf 1b10 a7bf fb82 18bf
000002d0: 7997 23bd e647 e4be 5297 25bf 1f10 2bbe
000002e0: 7e9b f03e 94cc 5ebe a373 a73e 32ff 233f
000002f0: 860e 26be 2a07 e9bd 0f29 ebbd 377c 393d
00000300: 2847 12be 8a14 73be 20bc 3d3e b435 be3d
00000310: 4c6e 1f3e 1c03 973d 845c 35be a88f f6bd
00000320: 5cd6 70be 08d1 2bbe 68e4 49be b436 edbd
00000330: b07d 00be e01b e33d b0f2 a53d 8051 133b
00000340: 05e9 883f 4157 ed3e c815 0cbd d463 a63f
00000350: fc45 33bf ef36 4bbf 8aa6 6fbe 9d1f a93e
00000360: 36c7 0c40 c139 653f b3de 82be f7dd be3e
00000370: d192 10bf 24b5 62c0 aef2 42bf 9e91 7d3f
00000380: 6a24 c13c cb11 48bf 2375 2b3f 18ef 05bd
00000390: 0518 6b3e 8690 6bbe 5868 e0bd 847c 12c0
000003a0: 7b87 cabe 5c77 253f f701 303e a287 be3f
000003b0: 6e01 a4be 333b 31bf 504c 853d 99ad 8a3e
000003c0: 7109 0040 bcbf b53f 6143 62be f30c 2c3d
000003d0: 79c0 0ebf 1906 21bf 07da 8b3f 8634 8e3f
000003e0: b609 f3bf 9747 02bd bce8 b53f e1c0 fd3d
000003f0: 5361 c0be 026e 71bf 74a1 6dbf 1218 0abe
0.5817084 0.0011094668 1.065564 -0.29146463 -0.041179318 0.04053789 0.02524431 0.9697149
0.19038077 0.5451161 1.4938998 -2.755442 1.5332245 0.35061023 0.08117013 0.7059726
-1.8624201 0.6976155 -0.29939562 0.53768784 -1.8280402 -0.47236395 0.5130361 1.3221908
-2.6134179 0.10417773 1.019995 0.40406156 -1.5740417 0.1669074 -0.63307554 0.7453875
0.04477803 0.06069484 0.15423937 -0.0858061 0.107461825 -0.14219551 -0.05653238 -0.107843414
0.12827837 -0.07231247 0.14675967 0.18963392 0.028542304 -0.027082201 -0.19295228 -0.19886923
0.14961405 -0.93580455 -0.39729163 0.46728042 -0.304365 -0.60471195 -1.2124562 -1.6246185
0.038739316 0.94648814 -0.0733537 0.82042325 0.058033377 1.3089728 -1.2597998 0.6127993
-0.347442 -2.453739 -0.7776929 0.6295132 1.3202263 -0.7657246 -0.05936671 0.4946926
-1.244092 -0.5596248 0.27274 0.6657785 -0.1802157 -0.24602033 -0.19579966 0.6076453
0.21536717 0.95319396 -0.17973453 0.7582935 0.6076101 0.64673215 -0.37646714 1.291383
-0.44130462 -0.5495759 -0.64221483 0.48613682 0.72871894 -0.9689395 -1.5446118 -0.18108077
-0.36220264 -0.4854706 0.3281263 1.6402814 1.0617294 -0.7385473 -0.80163854 0.18317513
0.35475338 0.3730092 -1.2817533 -2.532093 -0.8391433 1.0551866 0.937494 0.839179
-1.0911578 -1.8745371 -1.0049314 -0.5891699 0.21728519 -0.47768134 1.1629246 2.6005085
-1.9211594 -0.2352686 -0.52925456 -0.30188587 -1.2211242 0.9512693 1.5027646 0.99823046
-0.13943397 0.13736725 -0.24632576 0.024434146 -0.0029977919 -0.20932345 0.11157083 -0.07213576
-0.10230582 -0.040432587 0.08446793 -0.059650872 -0.03518286 -0.18745214 -0.26964515 -0.10827191
-0.27575028 1.0476781 0.18817909 0.31316018 -0.99527603 0.6911799 -1.7196624 -1.1157286
-1.2827399 0.7922834 -0.5433639 -0.19914624 -0.24342875 1.2167147 -0.60676587 -0.21152088
1.364818 1.4486977 0.7301676 1.2949704 -0.15438844 -0.7050894 -0.76725787 -0.6468439
0.31963316 -0.9958205 0.31164458 -1.3207229 -3.730249 -1.3888956 -0.57796055 1.0041742
0.25004303 -1.0100254 -1.305179 -0.5957486 -0.039939377 -0.44586104 -0.6468402 -0.16705368
0.4699363 -0.21757728 0.3270541 0.6406127 -0.16216478 -0.113783196 -0.11482441 0.045284476
-0.14284956 -0.23738304 0.18528795 0.09287587 0.15569419 0.0737364 -0.17711073 -0.12039119
-0.23519272 -0.16778958 -0.19716036 -0.115826994 -0.12547946 0.11089301 0.081029296 0.0022478998
1.0696112 0.46355632 -0.03420046 1.2999215 -0.7002866 -0.79380697 -0.23403373 0.33031932
2.1996589 0.8954125 -0.2556053 0.3727872 -0.56474024 -3.542306 -0.7615155 0.9905032
0.023576934 -0.7815215 0.6697561 -0.03269872 0.22958381 -0.2300435 -0.10957402 -2.2888498
-0.39556488 0.6463525 0.1718825 1.4885142 -0.3203234 -0.69230956 0.06508696 0.2708557
2.0005763 1.4199138 -0.22096016 0.042004537 -0.5576244 -0.6289993 1.0925912 1.1109779
-1.8987339 -0.031806555 1.421165 0.12390304 -0.37574252 -0.94308484 -0.9282448 -0.13485745

net.0.bias f4 [128]
00000000: 2ee9 31bf ad1c 3b3e 10d2 83be 1c1c f13e
00000010: fb7f 803f 406b d93e 1772 093e 2a38 cf3e
00000020: c283 2bbe 3e59 8abf dd8e 883f 7bac 793f
00000030: dc03 10be f2e2 4b3f 50ec 2a3f 5f43 81bf
00000040: 06ee 533f 7c4b 84be 966b 66bd 56b9 2b3e
00000050: f960 d6be 004b cc3f 5cb1 80bf 9f1d d33a
00000060: 7cbe 0dbe 42a8 9dbf a1e7 d23e 4d07 c1bd
00000070: 3ac1 a1bf 81b2 6c3f 8f85 323f 5e58 a0bc
00000080: 4f64 5a3e 2286 3ebf 697b 603f 40b0 7dbe
00000090: ddae a3bc b7d3 eebd 904b 5bbf 2445 19be
000000a0: 08a7 5bbe 9fd6 053f 4d4b 8b3f 835b a23f
000000b0: 019f 87bf 7836 253f 9570 a53f 8052 5abe
000000c0: d1b5 d73e 2eb5 cb3f f6e4 3cbf a41d 80bf
000000d0: 59b8 c03d 7141 9e3d 3c3a 90bf 7071 17be
000000e0: 48f1 bcbe 5fbb 87be 8a6e 343f dcaf 643f
000000f0: 8535 edbd 4803 c8bd 88d9 5a3f 2fc3 0abf
00000100: fce5 f2be 2e40 253f 6266 373c 7c99 f1be
00000110: e0fe acbf 2898 233f 893c aa3f 558b 84bf
00000120: 6083 0e3e 0977 b33c 6cb3 303f c6f0 a5bd
00000130: 81f4 8bbe 7843 153f faa6 6bbf 841e 84bd
00000140: 6b77 05bf a491 06bc 09f0 543f 4c35 c3bf
00000150: 98be f5bd ea33 3abf ca14 a2bf c867 243f
00000160: ced9 eabf a2e9 6ebe 8e06 2abe 546c d5be
00000170: ebca 693f 1101 003f f257 55be 9681 8c3f
00000180: b2a4 3dbf b30c ffbe cd1c 223e 537f 5fbf
00000190: 272a 1bbf 4a00 5b3f 820b 53bf 3609 8abf
000001a0: 00d8 0e3f 9047 643f 1808 eebd c176 28bf
000001b0: 2385 50bf 433d 903e 5773 263f a998 1cbf
000001c0: 831c a8bf 3d2f 493f de13 603f f5c3 12be
000001d0: 04e5 4c3f 0f28 c3be 7ebd 8dbe f677 40bf
000001e0: b44f 80be d4f5 34bf 2e70 18be c63b 3abf
000001f0: 956d 273f 2d68 90bf ceb7 32bf d3a8 333f
-0.6949643 0.18272658 -0.25746202 0.47091758 1.0039057 0.42464638 0.13422428 0.40472537
-0.1674948 -1.0808485 1.0668598 0.9752881 -0.14063972 0.79643166 0.66766834 -1.0098685
0.8278507 -0.2583884 -0.056254946 0.16769919 -0.4187086 1.5960388 -1.0054126 0.001610685
-0.13842195 -1.2316973 0.41192344 -0.09425221 -1.2637093 0.92459875 0.69735044 -0.019573387
0.21327327 -0.7442342 0.8768831 -0.24774265 -0.019980842 -0.11661475 -0.85662174 -0.14967781
-0.21450436 0.5228061 1.0882355 1.2684177 -1.0595399 0.6453624 1.2924982 -0.21320534
0.42130902 1.5914667 -0.73786867 -1.0009046 0.094101615 0.07727326 -1.1267772 -0.14789367
-0.36902833 -0.2651014 0.7048117 0.8933084 -0.11582474 -0.09766251 0.85488176 -0.54204077
-0.4744109 0.64551055 0.011193844 -0.47187412 -1.3515282 0.63904047 1.3299724 -1.0355021
0.13917303 0.021907346 0.69023776 -0.081025645 -0.2733498 0.58306074 -0.9205166 -0.06451133
-0.5213534 -0.008213434 0.83178765 -1.525064 -0.119992435 -0.72735465 -1.2662594 0.6422086
-1.8347719 -0.23331311 -0.16604063 -0.4168421 0.91325253 0.5000163 -0.2083433 1.0977046
-0.7407943 -0.49814376 0.15831299 -0.87303656 -0.60611194 0.85547316 -0.82439435 -1.0784061
0.5579834 0.89171696 -0.116226375 -0.65806204 -0.8145315 0.2817174 0.65019745 -0.6117044
-1.3133701 0.78587705 0.87530315 -0.14332564 0.8003695 -0.381165 -0.27683634 -0.75183046
-0.2506081 -0.70687604 -0.14886543 -0.7274746 0.65401584 -1.1281792 -0.69811714 0.7017948

net.2.weight f4 [128, 128]
00000000: 85c5 39be ec64 183f 9213 393c 0287 5c3f
00000010: b87c 0f3f d1cb 1d3f acfd 213e f802 4e3f
00000020: b032 f13d bb17 6440 0054 af3e 9117 8c3e
00000030: e76a 99bd 3d67 673e 4fef 913e 9c63 0340
00000040: bbfe 263f 8834 fabc 0720 c63e 5c30 f43e
00000050: b36f 173f 129d e93e aea4 ed3f eb52 debe
00000060: dbce 0abd 0d51 37bf c35f e13c 7848 683d
00000070: d989 b4bf 2c58 4b3f 1e3a ca3e 1872 a5bd
00000080: 6660 f1bd 554c 4e3f 3aae da3e b705 a4bd
00000090: 6e87 023f 7d46 703f 694d a43f 68b5 203d
000000a0: 90c3 b0bd 0a00 323f f7e4 fb3e 171c 233f
000000b0: bc32 c1be 4436 df3e 99a3 ad3e bbc6 b7bc
000000c0: 84b1 e03e 7a31 90bf 1683 bf3e 1004 6ec0
000000d0: 8180 543e ad7a cdbe 2472 a340 19ad 9ebc
000000e0: bdd5 363f b064 4abc 21f1 603f fe34 5e3e
000000f0: 4523 4c3f dfae 9e3d 7692 013f 95ce 2640
00000100: 0462 46bf a505 d03e 6b1f 3b3f e8cd 2e3f
00000110: ab2a 9cbf 17a3 133e c9ce 893f 4544 e73f
00000120: faf1 483e 072c 013f 91c1 bb3e a294 973f
00000130: e0dc 60bd 4cc4 6c3d 6d04 9240 22b8 073f
00000140: 34d5 0b40 2b58 563f 5efb b23f df68 25c0
00000150: e9be 803c 5710 113f b482 1fc0 aba2 1e3e
00000160: f95f 89bf 74a9 433f d288 433d 2f1c 363f
00000170: 085e e43e d98a 853f a3f1 9ebd 8853 e03e
00000180: 06c1 913f 601a 573f ad09 5e3f 5e0e a440
00000190: 91fc 42bd 4b53 c5bd 447d d23f e6da 6fbe
000001a0: 078b b5be d5ac 1e3f 1286 803d 8ab9 f1be
000001b0: 1c78 883f 7d51 213e 4b9a 2f3e da7d 0e3f
000001c0: cfd7 03bf 0a71 efbd faba d03e 4d2b 443f
000001d0: 0059 d73e 6df8 1dbf 9269 abbc ec77 d4be
000001e0: febb 913f f83b e53f 57aa 8dbd e880 4cbf
000001f0: 22b2 663e acc4 52bf 7a22 d73f 23d9 7e3e
00000200: 8d9a d7be 6ad4 7e3f 4137 97bc 35c9 1fbe
00000210: f18e 31bf 41b3 033e 51b4 75bf dacc 5b3f
00000220: fb1d 9b3d 4e07 c840 d99c 713f f823 623d
00000230: 2bb3 913d 2165 493f ce69 543f be66 953f
00000240: 7f9f cb3e a948 a0bc f4b9 a33f ed65 b0bf
00000250: 3920 9e3f 88ce 203e 6009 a43e 13d2 b73e
00000260: f5fd 73bf 6c04 463e b9a1 f43e f8ae febd
00000270: 33c7 7fbf 78c3 673f 3cc7 483f c8aa ccbf
00000280: 86a0 9cbe 7c90 0ec0 3af7 b4bd cb76 6cbd
00000290: a4d9 233f 49f3 a33e da69 29be 9051 6b3c
000002a0: b1ef 0abd ee9a ae3e b1e5 ed3d 20e6 963e
000002b0: 9dfe 68bf cbe5 ef3e 32d1 803e be92 e4bc
000002c0: fe17 2b3f 81ec a2bf 254c 69be 1b13 87c0
000002d0: 3aa5 dfbe ac36 c3be 0f70 a840 4e37 8c3b
000002e0: e3ea be3c e5cc 293e f056 853f 8bc2 0a3f
000002f0: dd6b 513f 6511 133d 499a 173f 1474 1e40
00000300: 08dc 813e c4a3 ef3e 4cac fd3e 95e3 0740
00000310: 9986 31bf a129 b03e c7e9 403f fa1e f73f
00000320: b42a b33e 771c 523f a9fa 403e 7948 a23e
00000330: 85ff c5bc f16b 633e 881d 3640 41f2 373f
00000340: ff66 0e40 4aad e13e 740f 903f dfd9 07c0
00000350: a1f6 0a3d 80f2 373d 7ab5 15c0 27f5 d43f
00000360: 7261 88bf be55 ef3e c99c ecbe 5f81 453f
00000370: dbef ad3e 0c3b 943f 5a9d 87bd 80b5 a33e
00000380: 17af 7a3f 7a81 933f 6497 d03f c8f7 b740
00000390: 175f dcbe 73ac 3a3e a9ea 0440 bc36 9dbe
000003a0: 2dad 4dbf c973 293f 0898 803d f0e0 0bbf
000003b0: ee5c 453f acfc 21bf e091 1cbe f86f 553f
000003c0: 7343 b9bf 5a88 80bf 8aca 383f 9048 83b8
000003d0: 595f 083f 7a53 89bf cdad 35bd 2a29 febd
000003e0: 5e37 5a3f f45a 3a40 d7d8 173d ec42 8cbf
000003f0: 9eef 3c3f f5e1 d6bf f587 0040 7bfe da3e
-0.18141754 0.59528995 0.01129617 0.86143506 0.5604968 0.61639124 0.15819424 0.8047328
0.11777246 3.5639484 0.34243774 0.2736173 -0.07491093 0.22597976 0.2850289 2.0529547
0.6523244 -0.030542627 0.3869631 0.47693145 0.59154814 0.45627648 1.8565881 -0.43422636
-0.03388868 -0.7160805 0.027511483 0.056709737 -1.4104568 0.79431415 0.39497465 -0.08078402
-0.11785965 0.80585223 0.4271105 -0.080089025 0.509879 0.93857557 1.2836124 0.039235502
-0.086310506 0.6953131 0.49198124 0.63714737 -0.3773402 0.4359609 0.33913878 -0.02243363
0.43885434 -1.1265099 0.37404698 -3.718998 0.20752145 -0.40132657 5.107683 -0.019369649
0.7141989 -0.012353107 0.87867934 0.21699902 0.7974132 0.07748198 0.50614107 2.6063588
-0.7749331 0.40629306 0.73094815 0.6828294 -1.2200521 0.14417683 1.0766231 1.8067709
0.19623557 0.50457805 0.36671117 1.1842234 -0.054898143 0.05780439 4.5630403 0.5301534
2.184888 0.83728284 1.3982961 -2.5845258 0.015716033 0.5666556 -2.4923525 0.1549174
-1.0732414 0.7643044 0.047737904 0.71136755 0.4460299 1.0432998 -0.07760932 0.4381373
1.1387031 0.8402462 0.86733514 5.126754 -0.047604147 -0.096350275 1.6444478 -0.23423347
-0.35457632 0.6198247 0.06275572 -0.47211868 1.0661654 0.15753742 0.17148702 0.55660784
-0.5150117 -0.11691482 0.40767652 0.7662857 0.4206009 -0.6170719 -0.020924363 -0.41497743
1.1385496 1.7908926 -0.06917255 -0.79884195 0.2252889 -0.8233135 1.6807396 0.24887519
-0.421101 0.9954287 -0.018458964 -0.15604098 -0.69358736 0.12861349 -0.95978266 0.85859454
0.07574078 6.2508917 0.94379956 0.055210084 0.07114252 0.78669935 0.82973945 1.167198
0.39770123 -0.019565897 1.2791123 -1.3781105 1.2353584 0.15703785 0.32038403 0.3590246
-0.9530938 0.19337624 0.47779635 -0.124357164 -0.9991333 0.90532637 0.7842901 -1.5989618
-0.3059122 -2.2275686 -0.08836217 -0.057730477 0.6400397 0.3202155 -0.16544285 0.014362708
-0.033919994 0.34102577 0.11616076 0.29472446 -0.9101351 0.46855006 0.25159603 -0.027902003
0.66833484 -1.2728425 -0.22782953 -4.221082 -0.43680745 -0.3812765 5.263679 0.004279054
0.023305362 0.16582067 1.0417156 0.542031 0.8180521 0.03590526 0.59219795 2.4758348
0.25363183 0.4680463 0.49545515 2.1232655 -0.69346005 0.3440676 0.75356716 1.9306328
0.34993517 0.82074684 0.1884562 0.31695917 -0.024169693 0.22209145 2.8455524 0.71854025
2.2250364 0.44077522 1.1254716 -2.1226728 0.03392661 0.044909 -2.3392015 1.6637315
-1.0654738 0.46745104 -0.46213368 0.7715053 0.33972058 1.158052 -0.06621809 0.3197441
0.97923416 1.1523888 1.6296201 5.7489967 -0.43041298 0.18229847 2.0768225 -0.30705822
-0.8034237 0.661923 0.06278998 -0.546401 0.77094924 -0.6327617 -0.15290022 0.83373976
-1.4473709 -1.0041611 0.7218405 -6.2600826e-05 0.5327049 -1.07286 -0.044355202 -0.12410195
0.85240734 2.9118013 0.03707203 -1.0957923 0.73803127 -1.6787707 2.0082982 0.42772278

net.2.bias f4 [128]
00000000: ce0a be3f 38bc af3f 345d 75be 4369 eabd
00000010: 2857 b93f 4ab6 0bbf 5e56 913c 95d9 d43c
00000020: 6bd7 983f b3c5 b83f 9ffb f43c ec6d 5abd
00000030: e3ed 9ebd b85a 68bc 4615 9bbd 9b33 23be
00000040: 42d3 a6bd 4c25 ae3f 934b a13f 96c2 34be
00000050: 1ba1 be3f b5be ac3f aac6 223d 0112 cabc
00000060: 70a4 653d 3cbc cb3f dca5 98bd d958 243c
00000070: 00e7 b23f f4fe ccbd 6298 b73f 81ed 4bbd
00000080: 4e8e b13e 96c3 dc3d f538 c53c a27e bc3f
00000090: 9f94 c6bd b47e 9c3f 5b4d a83f bcd9 a83f
000000a0: a396 a23f 27e1 b13f 5aba a13b c9e7 1ebd
000000b0: 77de b63f c270 be3f deba bc3f af84 c13f
000000c0: bb74 093d a9b4 b03f 76a5 a43f 403c b23f
000000d0: 8d1a 963e 7fba ad3f d5c6 c03f d060 ca3f
000000e0: 8409 32bd d3f7 c73f 0b9a b8bd 16ec a03f
000000f0: e099 b43d dc57 c03f 305d 99bc db88 b9bd
00000100: bfda b5bb fadf f93c ac4e af3f 2900 b13f
00000110: ebc3 be3f 1735 b33f 7f5a 0bbc 497e b0bd
00000120: 55b0 af3f 1a2f a93f 84bf ba3f ad42 cebd
00000130: 0da7 bb3f 7244 9abf 0f9e 943d a737 033f
00000140: c4bf b43f 5e4a a43f 19d5 b53f f36c b03f
00000150: a695 203e 1b7f 84bd cecc b73f 435a 9a3f
00000160: d0a1 8abd c00e c33f af0a 3ebd a2c8 62bd
00000170: b255 c23f 379a b33f 06d2 733d e8ab a93f
00000180: 2281 5b3d b2ba b53f 6479 b83f 31af 02be
00000190: bd29 aabd b953 b13f f638 b43f dfa1 b03f
000001a0: 6fa3 9f3f c1e9 b43f c8dd 7fbd 6a22 b43f
000001b0: 4c86 213f 0d5f af3f d1bd 023d ad14 b63f
000001c0: f53f 9dbe 9ce0 c6bd 6ff5 4bbd 9bc0 ad3f
000001d0: c78b d0bc 5a33 af3f 65a2 a93f a671 ce3f
000001e0: 5e67 bf3f b5d6 93bd e0dd bf3f ce0d b13f
000001f0: 9b90 a23f 35da ffbc 3144 d03f 5619 e1bd
1.4847047 1.3729315 -0.23961335 -0.11445858 1.4479723 -0.54575026 0.017741378 0.025982657
1.194074 1.4435333 0.029905139 -0.053327486 -0.07760217 -0.014181785 -0.07572417 -0.15937655
-0.08145763 1.3605132 1.2601188 -0.17652354 1.4892915 1.3495699 0.039740242 -0.024666788
0.056065023 1.591682 -0.0745351 0.010030949 1.3976746 -0.10009566 1.4343379 -0.04978705
0.34678882 0.107794926 0.02407501 1.4726145 -0.09696316 1.2226167 1.3148607 1.3191447
1.2702221 1.3896836 0.004935545 -0.038795266 1.4286641 1.4878161 1.4744527 1.5118617
0.03355859 1.3805133 1.2862995 1.3924637 0.29317132 1.3572539 1.5060679 1.5810795
-0.043466106 1.5622505 -0.09013756 1.2572048 0.08818412 1.5026813 -0.018721193 -0.09059306
-0.005549758 0.030502308 1.3695884 1.3828174 1.490354 1.4000577 -0.008505463 -0.08617837
1.3725687 1.3217499 1.4589696 -0.10071311 1.4660355 -1.2052138 0.0725671 0.51256794
1.4121022 1.2835195 1.4205657 1.3783249 0.15682086 -0.06469556 1.4359376 1.2058796
-0.067691445 1.5238876 -0.046396907 -0.05536712 1.5182402 1.4031438 0.059526466 1.3255587
0.053589948 1.41976 1.4412045 -0.12762143 -0.08308742 1.3853675 1.4079883 1.3799399
1.2471751 1.4133836 -0.062467366 1.4073002 0.63095546 1.3700882 0.031919304 1.422506
-0.30712858 -0.097108096 -0.04979461 1.3574404 -0.025457276 1.3687546 1.3252684 1.6128433
1.495342 -0.072186865 1.4989586 1.3832338 1.270038 -0.031231979 1.627081 -0.109911606

net.4.weight f4 [4, 128]
00000000: ffda de3e 8785 293f 2699 d740 dbb8 e1bc
00000010: 1846 fb3e 9a52 8e40 6f15 83bd 07cc 0dbd
00000020: 547d 6d3f 41aa 0b3f ff5e 163c 5289 95bd
00000030: 0bf4 1b3d 893a 713f ca91 853d aae5 9240
00000040: b1d5 1b3d d8e4 403f d0c2 edbd 763d 19c1
00000050: 83ca d03e 339c 093f 2fd0 e0bc 0ad8 fd39
00000060: a798 a43b 02c7 d83d 33f5 12bd 6f20 1c3d
00000070: 7e23 cb3e 9ba6 163d 9c93 063f 506e 15bd
00000080: 233f de40 6578 0e41 b840 97bd d2c8 d03e
00000090: 3ae3 02bc 0fb9 973f 40c2 2c3f a5d6 f73e
000000a0: 2b03 6d3f cce3 983f aed4 0541 3a29 d0c0
000000b0: 5de3 fb3e 94ab b63e 6cb2 263f dfc3 0f3f
000000c0: 32b5 9e3b 36e6 fc3e 705c 2b3f 7274 563f
000000d0: 228f 0040 da2f b53e 6af2 143f 0284 de3e
000000e0: 5701 963c 29cd 073f e116 b83a cf3d b03e
000000f0: e430 eabf 07d5 023f f898 cfbb 3524 bfbc
00000100: 1cb2 ebbc 06d8 2f3d b4b9 e13d f70a fd3e
00000110: da05 0e3f f2f0 463f c1b6 48bd 5401 b2bc
00000120: 360e f43e 27ea d03f 9e71 f73e a4e6 84bd
00000130: a638 893f f339 0dc1 366c 0a41 88bd 9b40
00000140: ffa9 193f 69a8 3c3f 39ba dd3e 974b 143f
00000150: f8ae e240 f51c 5b3d 3e8c 163f 7e09 1a3f
00000160: e1cb 72bc 2f14 1a3f 272e 0dbc 5e21 81ba
00000170: a036 a73e fe47 143f 3d92 7bbc 8182 553f
00000180: 4d5f 17bd 6dd4 2b3f 818e 223f bcdf 963d
00000190: c0a1 c23d 9d7c ef3e 6423 eb3e 0802 733f
000001a0: 5dff 4240 c0cd 133f d5d4 693b 2dce 193f
000001b0: 215b db40 44d5 983f 3669 1a41 f69e c73e
000001c0: cb26 3e41 2378 4cbd 580c ec3c 7abd 6f3f
000001d0: e001 cc3c 52f2 263f f02d 373f 653f e13f
000001e0: 97af 093f b8f8 dabc ee13 d73e b09c 673f
000001f0: 43b1 8d3f 3071 b4bd 5ad2 1640 fccc 113d
00000200: 84ba 1a3f 6718 a83c 3d26 e640 12ee 85bc
00000210: fc40 0a3f 0d8a 4ac1 78d8 77bd 8994 cdbc
00000220: 499f 7ebe a9d7 213f 27d7 a6bb 6776 093d
00000230: 0c9b 953d 345f e33f f8e6 083d 208e b640
00000240: e477 30bd d0e6 cf3e 8ecd ef3f 37e5 cc40
00000250: 1a80 2f3f f7f7 fa3e 3319 58bd 0a9e 80bd
00000260: 8cc4 3bbd 38e1 c53f 5477 833a 80df 7abd
00000270: 8d19 673f 4a96 e33b 1203 2f3f 4e4d 803c
00000280: b09b ccc0 6eeb 3041 11c8 ee3c b5fc 1e3f
00000290: d188 3dbd 8f9a 933f c735 f33e 426c 4f3f
000002a0: c8dd 183e dacf 403e ccf2 bd40 cd0b 3741
000002b0: 09eb 0e3f 5215 2a3f 5bbd 163f 57fd 1e3f
000002c0: 99ca 19bd 819b 2f3f 6111 4b3f adde 9f3e
000002d0: 7ec9 8940 ad55 343f a681 2d3f ee68 383f
000002e0: 0ccf 0d3d 765d 1f3f 0ddf 3bbd 7cd6 043f
000002f0: 7ad1 103f aa9b 3d3f 4c05 6fbc e4d0 43bc
00000300: 701a 2cbd 43de 1ebd 070c 423f 5036 453f
00000310: 517a 2f3f b0c9 f83e a0fe 6abd 7eec d9bc
00000320: 7436 393f 3ec6 a43f 6723 2b3f f3c6 81bd
00000330: cf19 bd3f f9a9 05c1 8572 1ec1 02f0 ab40
00000340: fb0d 1a3f 57ee ac3e 2ae1 353f d3f4 563f
00000350: 03c1 ee40 fc75 623b 0c2c 2a3f 8012 b03f
00000360: cc62 a83d 8a82 0f3f dfa5 26bd d01f 8e3b
00000370: 4878 333f 3cc4 133f 6bbd 99bd 3390 a93d
00000380: f233 e73d 0a6c 3d3f a70d 0d3f a29c f53c
00000390: 94de 63bd d9b8 213f 8a81 1e3f 0dde 723e
000003a0: f954 40be a6f3 133f 045f 8a3d 4cd7 203f
000003b0: 5783 bb40 1455 b53f 1ea3 cc40 6504 1d3f
000003c0: ab3e de40 a93f 81bc ea6e da3c 4ae2 a33e
000003d0: 39b4 3e3c 66e7 163f e468 073f 877b ec3f
000003e0: 3eef 153f beea a8bc b078 2a3f 5917 9b3e
000003f0: fa48 6c3e b026 88bc 0fe8 5740 b84e 07bd
0.43526456 0.6621937 6.737445 -0.027553966 0.49076915 4.447583 -0.064005725 -0.034618404
0.9276936 0.5455666 0.009177922 -0.073015824 0.038074534 0.9422994 0.06521948 4.590535
0.03804559 0.7534919 -0.11609423 -9.577505 0.40779504 0.53753966 -0.02744302 0.00048416882
0.0050230804 0.10584833 -0.03587837 0.03811687 0.39675516 0.03677998 0.52568984 -0.036482155
6.945207 8.904393 -0.07385391 0.40778214 -0.007988745 1.185335 0.674839 0.48405948
0.9258296 1.1944518 8.364424 -6.5050325 0.49196902 0.3567778 0.65116 0.5615825
0.0048433775 0.49394387 0.66937923 0.8377143 2.0087361 0.3538807 0.58182395 0.4346009
0.018311186 0.53047425 0.0014044904 0.34422156 -1.829617 0.51106304 -0.006335374 -0.023332695
-0.028771453 0.042930625 0.11021748 0.49422428 0.5547768 0.77711403 -0.049002413 -0.021729149
0.47667092 1.6321458 0.4832887 -0.06489304 1.0720413 -8.826648 8.651419 4.866886
0.6002502 0.73694474 0.4330614 0.5792784 7.0838585 0.053494412 0.5880774 0.60170734
-0.014819116 0.6018705 -0.008616961 -0.0009851863 0.32658863 0.5792235 -0.01535469 0.8340226
-0.03695612 0.6712101 0.63498694 0.07366893 0.095035076 0.4677476 0.45925438 0.94924974
3.0468361 0.57735825 0.0035679836 0.60080224 6.854874 1.1940084 9.650686 0.38988465
11.884471 -0.04991926 0.02881448 0.93648493 0.024903238 0.652135 0.7155447 1.7597471
0.53783554 -0.026729926 0.42007393 0.9047346 1.1069721 -0.08810651 2.3565888 0.03559588
0.6044085 0.020519448 7.1921678 -0.016348872 0.5400541 -12.658704 -0.060509175 -0.025095241
-0.2486545 0.63219696 -0.005091566 0.033560183 0.073049635 1.7763429 0.033423394 5.7048492
-0.043083087 0.40605783 1.8734605 6.4029803 0.6855484 0.49017307 -0.052758407 -0.062801436
-0.04584174 1.5459356 0.0010030069 -0.061248302 0.9027336 0.006945406 0.6836406 0.015661862
-6.394005 11.057478 0.029148133 0.6210435 -0.046273056 1.1531543 0.47501966 0.81024563
0.14928353 0.18829289 5.9358883 11.440381 0.55827385 0.6643878 0.58882684 0.62105316
-0.037546728 0.68596655 0.79323393 0.31224576 4.305846 0.7044323 0.6777595 0.7203511
0.034621283 0.62251985 -0.045867015 0.5188978 0.56569636 0.7406565 -0.014588665 -0.011951659
-0.0420174 -0.038786184 0.757996 0.77036 0.68546015 0.48591375 -0.057371736 -0.026602026
0.72348714 1.2872999 0.66850895 -0.06336775 1.4773501 -8.353997 -9.902959 5.373048
0.6017758 0.3377559 0.710467 0.8396732 7.461061 0.0034555187 0.6647346 1.3755646
0.08221969 0.5605856 -0.04068553 0.0043372884 0.7010541 0.57721305 -0.07506832 0.08279457
0.11289205 0.7399298 0.55098957 0.029981915 -0.05563219 0.6317268 0.6191641 0.23717518
-0.18782414 0.57793653 0.06756404 0.62828517 5.8597827 1.4166589 6.394912 0.6133483
6.94515 -0.015777426 0.026664216 0.32008582 0.011639648 0.58946836 0.52894425 1.8475198
0.5856818 -0.020619746 0.66590405 0.3029125 0.23074713 -0.01662001 3.3735387 -0.033034056

net.4.bias f4 [4]
00000000: f762 9d3f 55b9 8d3f 8490 d63f d786 a33f
1.2295827 1.1072184 1.6762853 1.2775525
