python_version/deep-learning/model.pth (torch, 79549 bytes, 6 tensors)

net.0.weight f4 [128, 16]
0	0x3f5e7923	0.8690359
1	0x3f04617c	0.5171125
2	0x3e572108	0.21008694
3	0xbf879a07	-1.059388
4	0x3ee40f95	0.44543138
5	0x3c9442e0	0.018098295
6	0xbb88995a	-0.0041686716
7	0x3f38f4d3	0.7224857
8	0xbeb04687	-0.34428808
9	0x3d9ece8e	0.07754241
10	0x3e65b521	0.22432376
11	0xbfdf1d41	-1.7430803
12	0x3f3ea71a	0.74473727
13	0x3f2a530e	0.6653298
14	0x3ee5e8ec	0.44904268
15	0x3e76d949	0.24106325
16	0xbf1ac9c5	-0.60464126
17	0x3e830696	0.25590962
18	0xbe852ac8	-0.26009202
19	0x3e09ff02	0.13476184
20	0xbfb324b5	-1.3995577
21	0xbda423e0	-0.08014655
22	0x3f4b3a5b	0.7938592
23	0x3f18c1c1	0.59670645
24	0xbf212226	-0.6294273
25	0xbf0aadbe	-0.5417136
26	0x3ef24d61	0.4732466
27	0x3f1038e5	0.56336814
28	0xbf73a331	-0.95170885
29	0x3e42ea3d	0.19034667
30	0xbec06e0d	-0.37583962
31	0x3e788774	0.24270421
32	0x3d37692b	0.04477803
33	0x3d789b27	0.06069484
34	0x3e1df0ed	0.15423937
35	0xbdafbb1c	-0.0858061
36	0x3ddc14f2	0.107461825
37	0xbe119bb3	-0.14219551
38	0xbd678e7f	-0.05653238
39	0xbddcdd02	-0.107843414
40	0x3e035b68	0.12827837
41	0xbd94188f	-0.07231247
42	0x3e16482b	0.14675967
43	0x3e422f65	0.18963392
44	0x3ce9d18d	0.028542304
45	0xbcdddb7e	-0.027082201
46	0xbe459548	-0.19295228
47	0xbe4ba460	-0.19886923
48	0x3d933558	0.07187909
49	0x3e5d64ee	0.21620533
50	0xbe48fc5c	-0.19627517
51	0xbd48dc63	-0.049038302
52	0xbe293c0e	-0.16526815
53	0xbf05fc1b	-0.5233781
54	0xbf0d2145	-0.5512889
55	0xbf08c42b	-0.5342433
56	0x3db3baec	0.08775887
57	0x3f3b310f	0.7312173
58	0xbf4a88e4	-0.7911513
59	0xbd927d42	-0.07152797
60	0xbe26ff58	-0.16308343
61	0x3f0f6d0f	0.56025785
62	0xbe71b9dd	-0.23606057
63	0x3f847c4c	1.0350432
64	0x3ec6e977	0.38849995
65	0xbfb807c8	-1.4377375
66	0xbf33316e	-0.699973
67	0xbef59b7f	-0.47970197
68	0x3f1efb49	0.6210218
69	0xbe59e48d	-0.21278591
70	0xbdbb7481	-0.09153081
71	0x3e51b316	0.20478472
72	0xbe9bbb9d	-0.30416575
73	0x3ce17e72	0.027526114
74	0xbdc491b3	-0.095981024
75	0x3e0b6c71	0.13615586
76	0x3e113b91	0.14182879
77	0x3d0cd7c2	0.03438545
78	0xbe025319	-0.12727012
79	0x3eed29bf	0.46320912
80	0xbd9685d3	-0.07349744
81	0x3e73ce4e	0.23809168
82	0xbde6c10c	-0.112672895
83	0x3ec0d034	0.37658846
84	0x3e87c9de	0.265212
85	0x3f032a89	0.5123678
86	0xbef1acee	-0.47202247
87	0x3f2f0920	0.683733
88	0xbe8d7080	-0.27624893
89	0xbeb2685b	-0.34845242
90	0xbe5e7479	-0.21724118
91	0x3e5becb2	0.21477011
92	0x3f586cd5	0.84541065
93	0x3dfbcfac	0.1229547
94	0xbfa6c96f	-1.3030223
95	0xbf2c33ef	-0.67266744
96	0xbe2a5dae	-0.16637298
97	0xbea0cccf	-0.31406257
98	0x3ef09bef	0.46993968
99	0x3eae57eb	0.3405145
100	0xbf306941	-0.68910605
101	0xbf1ae45c	-0.605047
102	0x3e386560	0.18007421
103	0xbe7ecf45	-0.24883755
104	0xbca8acb7	-0.02059017
105	0xbecbd4f2	-0.39810902
106	0xbf38f08a	-0.72242033
107	0xbdc1e5d1	-0.09467662
108	0x3b34a9f3	0.0027567118
109	0x3f586b1a	0.84538424
110	0x3fca3b33	1.5799316
111	0x3f21ad50	0.6315508
112	0xbf35ed89	-0.71065575
113	0xbfb063d6	-1.3780468
114	0xbf785ea9	-0.9701944
115	0xbf4af6f7	-0.7928309
116	0xbf4708b1	-0.7774764
117	0x3eebcff6	0.460571
118	0x3f171aba	0.59025156
119	0x3f8f01a0	1.1172371
120	0xbea2954a	-0.31754524
121	0x3f9777f1	1.1833478
122	0xbea50680	-0.32231522
123	0xbf2a0467	-0.6641297
124	0xc0001ee2	-2.001885
125	0x3f0c4ec5	0.5480769
126	0x3f84bbd1	1.0369817
127	0xbeabf106	-0.33582324
128	0xbe0ec7c7	-0.13943397
129	0x3e0caa00	0.13736725
130	0xbe7c3cd2	-0.24632576
131	0x3cc82a1e	0.024434146
132	0xbb44769a	-0.0029977919
133	0xbe5658e3	-0.20932345
134	0x3de47f3f	0.11157083
135	0xbd93bbea	-0.07213576
136	0xbdd185b7	-0.10230582
137	0xbd259ca4	-0.040432587
138	0x3dacfd86	0.08446793
139	0xbd745479	-0.059650872
140	0xbd101be7	-0.03518286
141	0xbe3ff374	-0.18745214
142	0xbe8a0eee	-0.26964515
143	0xbdddbdaa	-0.10827191
144	0xbf1cd17d	-0.61257154
145	0x3f88e8aa	1.0696003
146	0x3e78e6ae	0.24306747
147	0x3efc477e	0.49273294
148	0xbf47d2ba	-0.7805592
149	0x3f637585	0.88851196
150	0xbfdcd23e	-1.7251661
151	0xbfa5c739	-1.2951423
152	0xbf4819ba	-0.78164256
153	0x3f2865ee	0.6578053
154	0xbe895070	-0.2681918
155	0x3e6fa2e1	0.23401977
156	0x3eba9ec8	0.36449265
157	0x3f2d4404	0.6768191
158	0xbee6173e	-0.44939607
159	0xbd8dc25a	-0.06921835
160	0x3f45c84d	0.7725876
161	0x3f9e837f	1.238388
162	0x3f957ca6	1.1678665
163	0x3f22b3a8	0.63555384
164	0xbca92fa4	-0.0206526
165	0xbe5b4f3b	-0.21416943
166	0xbec6bbe9	-0.3881524
167	0xbf9e9abd	-1.2390972
168	0xbf119053	-0.56860846
169	0xbf10d9ff	-0.56582636
170	0x3e3d21d6	0.18469939
171	0xbf3388fc	-0.70130897
172	0xc02021da	-2.5020661
173	0xbf91633d	-1.135841
174	0xbd9a9b51	-0.075491555
175	0x3ea04b1c	0.31307304
176	0x3f22b72e	0.6356076
177	0xbd94ce32	-0.07265891
178	0xbe9b1991	-0.30292943
179	0xbe5619b8	-0.20908248
180	0x3dfd97e6	0.12382488
181	0xbda11233	-0.07864799
182	0xbe57148a	-0.21003929
183	0x3d49d8f1	0.049279157
184	0x3ebed419	0.37271193
185	0xbda0f220	-0.07858682
186	0x3e247b2e	0.16062614
187	0x3ed574da	0.41690713
188	0xbc5ee815	-0.013605137
189	0xbe558cc4	-0.20854479
190	0xbd8eb82b	-0.06968721
191	0x3e5de1fc	0.21668237
192	0xbe124728	-0.14284956
193	0xbe73148a	-0.23738304
194	0x3e3dbc20	0.18528795
195	0x3dbe35b4	0.09287587
196	0x3e1f6e4c	0.15569419
197	0x3d97031c	0.0737364
198	0xbe355c84	-0.17711073
199	0xbdf68fa8	-0.12039119
200	0xbe70d65c	-0.23519272
201	0xbe2bd108	-0.16778958
202	0xbe49e468	-0.19716036
203	0xbded36b4	-0.115826994
204	0xbe007db0	-0.12547946
205	0x3de31be0	0.11089301
206	0x3da5f2b0	0.081029296
207	0x3b135180	0.0022478998
208	0x3ed5fcd5	0.41794458
209	0x3e4fe4a0	0.20302057
210	0x3ea2f14e	0.31824726
211	0x3e85ee7c	0.26158512
212	0xbf4a289c	-0.78968215
213	0xbf40fc68	-0.7538514
214	0xbe3b2441	-0.18275549
215	0x3d1c3e41	0.038145307
216	0x3f85b098	1.0444517
217	0x3eb855b2	0.3600288
218	0x3d8d3de6	0.06896572
219	0x3eb26a78	0.34846854
220	0xbeeaa463	-0.45828542
221	0xc0084980	-2.129486
222	0xbf9a6947	-1.2063378
223	0xbc3912d7	-0.011295996
224	0xbe3fa420	-0.18714952
225	0xbf446ef7	-0.7673182
226	0xbe2fa31b	-0.17152064
227	0x3ee365ee	0.44413704
228	0xbea63509	-0.32462338
229	0xbd5eae40	-0.054365396
230	0xbe665e06	-0.22496805
231	0xbfb60b23	-1.4222149
232	0xbecdd9c0	-0.40205193
233	0x3f0a4961	0.5401822
234	0x3e47c0fe	0.19507214
235	0x3f33f423	0.702944
236	0xbf31658a	-0.6929556
237	0xbde464dc	-0.1115205
238	0x3cfaf48d	0.030634189
239	0x3f9030d5	1.1264902
240	0x3fc58a73	1.5432876
241	0xbee4c27b	-0.44679627
242	0xbf1baa0b	-0.6080634
243	0x3f9951c8	1.1978083
244	0x3ee5e801	0.44903567
245	0xbf0b3ac1	-0.54386526
246	0x3f1d50cb	0.61451405
247	0xbf6dca8a	-0.92887175
248	0xbf5cb049	-0.8620649
249	0x3f4a29ff	0.7897033
250	0x3f7105ab	0.94149274
251	0x3df41c5d	0.11919472
252	0xbf2e33b8	-0.68047667
253	0x3cf3b15a	0.029747654
254	0xbece4e5d	-0.4029416
255	0xbf1a9d99	-0.60396725

net.0.bias f4 [128]
0	0xbeba6db8	-0.36411834
1	0x3e2d097a	0.16898146
2	0xbe83d210	-0.25746202
3	0x3f0cd602	0.5501405
4	0x3f307d37	0.6894106
5	0x3e827c54	0.2548548
6	0x3e88fc59	0.26755026
7	0x3e3d6b5f	0.1849799
8	0xbe2b83c2	-0.1674948
9	0xbf817265	-1.0113035
10	0x3f233138	0.63746977
11	0x3f3b2a6e	0.7311162
12	0xbe1003dc	-0.14063972
13	0x3f248dee	0.6427907
14	0x3f0ec725	0.5577262
15	0xbf6718f2	-0.9027244
16	0x3f047d3d	0.517536
17	0xbe844b7c	-0.2583884
18	0xbdeb3d47	-0.11486297
19	0xbe80ba77	-0.2514226
20	0xbeccf580	-0.40031052
21	0x3f9a3d7b	1.2050012
22	0xbf240bd4	-0.6408055
23	0xbd8f8853	-0.07008424
24	0xbe6673aa	-0.2250506
25	0xbf6a4dce	-0.9152497
26	0x3f01a9f7	0.5064997
27	0xbd486114	-0.048920706
28	0xbf717574	-0.94319844
29	0x3f08cab9	0.5343433
30	0x3ee9380e	0.4555058
31	0xbdc6c1af	-0.09704911
32	0x3e5a7624	0.2133413
33	0xbf045293	-0.516885
34	0x3f32534c	0.6965835
35	0xbe7db040	-0.24774265
36	0xbde99934	-0.11406174
37	0xbe01e5f2	-0.12685373
38	0xbdbb7b74	-0.09154406
39	0xbe194524	-0.14967781
40	0xbe5ba708	-0.21450436
41	0x3ea0eea8	0.3143208
42	0x3f465c9a	0.7748505
43	0x3f665370	0.89971066
44	0xbf1fd98a	-0.62441313
45	0x3f0a80e5	0.5410293
46	0x3f6554e9	0.8958269
47	0xbe5a5280	-0.21320534
48	0x3e5d0437	0.21583639
49	0x3fa65363	1.2994198
50	0xbe4d6410	-0.20057702
51	0xbf38642a	-0.7202784
52	0x3d5aa31f	0.05337822
53	0x3e5ee8c1	0.21768476
54	0xbf79f63a	-0.97641337
55	0xbe177170	-0.14789367
56	0xbe4ab0be	-0.19793984
57	0xbebff5de	-0.3749227
58	0x3f03b01c	0.51440597
59	0x3f4feb78	0.8121867
60	0x3e119938	0.14218605
61	0xbdc80348	-0.09766251
62	0x3f28f535	0.65999156
63	0xbf0ac32f	-0.54204077
64	0xbe44b33c	-0.19208997
65	0x3f0a2e2f	0.5397672
66	0xbec459af	-0.38349673
67	0xbe695f7e	-0.22790334
68	0xbf70a6e0	-0.9400463
69	0x3f2a30ba	0.664806
70	0x3f31bb5b	0.69426507
71	0xbf246fc0	-0.64233017
72	0xbda7afb7	-0.08187812
73	0x3e7cedca	0.24700084
74	0x3ebbaa58	0.366534
75	0x3d5982ee	0.05310338
76	0xbe8bf481	-0.2733498
77	0x3f1c7f7c	0.61132026
78	0xbf460eb3	-0.7736618
79	0xbbdefe4b	-0.0068052164
80	0xbee7a3b7	-0.45242092
81	0x3da1be37	0.07897609
82	0x3f238c35	0.63885814
83	0xbf946253	-1.1592506
84	0xbdf5be98	-0.119992435
85	0xbf1e9c88	-0.619576
86	0xbf83278d	-1.0246445
87	0x3ed02762	0.40655047
88	0xbf9ffacb	-1.2498411
89	0x3a3310a2	0.00068307866
90	0xbee85145	-0.45374504
91	0x3d2481b2	0.04016275
92	0x3f13c56f	0.57723135
93	0x3ecc09f3	0.3985134
94	0xbe5557f2	-0.2083433
95	0x3ef61c71	0.48068574
96	0xbf078eab	-0.5295207
97	0xbdfb3c26	-0.12267332
98	0x3e141cde	0.14464137
99	0xbf5eb495	-0.86994296
100	0xbec69084	-0.38782132
101	0x3ef7a746	0.48369807
102	0xbf0c1644	-0.54721475
103	0xbea35b66	-0.3190567
104	0x3f167c0a	0.5878302
105	0x3f330e5a	0.69943774
106	0xbdee0818	-0.116226375
107	0xbebeb8b0	-0.3725028
108	0xbf23afbc	-0.63940024
109	0x3e5fbb4b	0.2184879
110	0x3ee6df03	0.4509202
111	0xbf153d56	-0.58296716
112	0xbf345395	-0.70440036
113	0x3f064156	0.52443445
114	0x3f34c4a9	0.7061258
115	0x3e1d5fb6	0.15368542
116	0x3eef1377	0.46694538
117	0xbf35699e	-0.70864284
118	0xbe8dbd7e	-0.27683634
119	0xbf167aac	-0.5878093
120	0xbd608cf3	-0.05482192
121	0xbf05d08d	-0.5227135
122	0xbe18702e	-0.14886543
123	0xbeb42cf0	-0.35190535
124	0x3eb7a93d	0.35871306
125	0xbf290e7a	-0.66037714
126	0xbf00018d	-0.50002366
127	0x3f224eb9	0.6340137

net.2.weight f4 [128, 128]
0	0xbe613108	-0.2199136
1	0x3ef6c6e9	0.4819863
2	0x3c391392	0.01129617
3	0x3efea9e6	0.49738997
4	0x3ecaaa95	0.3958327
5	0x3eb9b58b	0.3627132
6	0x3f18ba7e	0.59659564
7	0x3ec64da2	0.38731104
8	0x3df132b0	0.11777246
9	0x404e7f42	3.2265172
10	0x3f04c425	0.5186179
11	0x3e890125	0.26758686
12	0xbd996ae7	-0.07491093
13	0x3e00da84	0.12583357
14	0x3f27ce5b	0.6554925
15	0x3fb9eb2e	1.4524896
16	0x3f339e18	0.70163107
17	0xbcfa3488	-0.030542627
18	0x3f389748	0.72105837
19	0xbf35e045	-0.71045333
20	0x3f2c20fc	0.6723783
21	0x3e455951	0.19272353
22	0x3ff10665	1.8830076
23	0xbe7b03ea	-0.24513212
24	0x3d2b56ed	0.041830946
25	0xbf2b3fb8	-0.668941
26	0xbd5aff3e	-0.053466074
27	0xbeb11d17	-0.34592506
28	0xbfd0f858	-1.6325788
29	0x3efdf1ed	0.49598637
30	0x3e74c846	0.23904523
31	0x3da5e6ac	0.08100638
32	0xbe7ff1e9	-0.24994625
33	0x3e5edef1	0.21764733
34	0x3c5558a4	0.013021622
35	0xbda405b7	-0.080089025
36	0x3e174b4a	0.14774814
37	0x3f2bc168	0.6709199
38	0x3f6f3b5c	0.9344995
39	0x3d20b568	0.039235502
40	0xbdb0c390	-0.086310506
41	0x3f3ef30c	0.7458961
42	0x3ed50653	0.41606387
43	0x3efa1ca0	0.48849964
44	0xbf0879b4	-0.53310704
45	0x3ec3c943	0.38239488
46	0x3d99f64b	0.0751768
47	0xbcb7c6bb	-0.02243363
48	0x3f392725	0.72325355
49	0xc000670a	-2.006289
50	0xbda4ee17	-0.080532245
51	0xc0165a00	-2.3492432
52	0xbe9899a5	-0.2980472
53	0xbea4db6e	-0.32198662
54	0x4095dc84	4.6831684
55	0xbc9ead19	-0.019369649
56	0x3f35c8ad	0.7100933
57	0xbc203964	-0.009779308
58	0x3f246e69	0.6423097
59	0x3ea2ab61	0.31771377
60	0x3f2c8da2	0.67403615
61	0x3d9eaedf	0.07748198
62	0x3ed3fab5	0.41402212
63	0x4026ce95	2.6063588
64	0xbeeef71d	-0.46672907
65	0x3ecbb544	0.39786732
66	0x3f85ff27	1.0468491
67	0x3f5c4537	0.86043113
68	0xbf94cc7b	-1.1624902
69	0x3e8ac74a	0.2710517
70	0x3f19b39e	0.600397
71	0x3ff73fd9	1.931636
72	0x3d115c9c	0.03548871
73	0x3dc2d94c	0.09514102
74	0x3f1e4750	0.61827564
75	0x3f66f058	0.90210485
76	0xbd60dce0	-0.054898143
77	0x3e853a98	0.26021266
78	0x4052c097	3.2930048
79	0x3e80a297	0.25124046
80	0x400f0184	2.2344675
81	0x3f34771d	0.7049425
82	0x3f851421	1.0396768
83	0xc0112f81	-2.2685244
84	0x3c80bee9	0.015716033
85	0x3f51f5cd	0.8201569
86	0xc020eeb8	-2.5145702
87	0x3e96aa54	0.29426825
88	0xbf6330cd	-0.8874634
89	0x3f220d6e	0.6330174
90	0x3e535c41	0.20640661
91	0x3f3657bf	0.7122764
92	0x3e1df88e	0.15426847
93	0x3f1ceb2f	0.6129636
94	0xbd9ef1a3	-0.07760932
95	0x3d746157	0.059663143
96	0xbd00bebc	-0.0314319
97	0x3ec1f241	0.37880138
98	0x3f313ecb	0.6923644
99	0x406c780b	3.6948268
100	0xbd5bd4ce	-0.053669743
101	0xbe7a6917	-0.24454151
102	0x3fe2e8dc	1.7727313
103	0xbd45cc0a	-0.04829029
104	0xbf6763f0	-0.9038687
105	0x3f02d6ba	0.51108897
106	0x3d808612	0.06275572
107	0x3ea24972	0.3169666
108	0x3f5e2f42	0.8679086
109	0xbcefe547	-0.029284133
110	0x3db01490	0.08597672
111	0x3f89e337	1.0772465
112	0xbeed7a09	-0.46382168
113	0x3e46a3d8	0.19398439
114	0x3eac0534	0.3359772
115	0x3f55db3e	0.8353766
116	0xbd28e7b2	-0.041236587
117	0xbfbf5a99	-1.4949523
118	0xbcab6992	-0.020924363
119	0xbf7af5e7	-0.9803147
120	0x3f68e1a1	0.9096928
121	0x4013d3ca	2.3098016
122	0xbd8daa57	-0.06917255
123	0xbed31570	-0.41227293
124	0x3e957efc	0.29198444
125	0xbf901d43	-1.125893
126	0x3ed8cb03	0.42342386
127	0x3e97c04a	0.29638892
128	0xbe193d81	-0.14964868
129	0x3f85a9ad	1.0442406
130	0xbc973741	-0.018458964
131	0x3ef5ac3b	0.47982964
132	0xbde3bca1	-0.111199625
133	0x3dff2b01	0.12459374
134	0x3f1bab34	0.6080811
135	0x3ec8b346	0.39199275
136	0x3d9b1dfb	0.07574078
137	0x4074627a	3.8185105
138	0x3eeb8d4f	0.46006247
139	0x3e8b7c2f	0.27243182
140	0x3d91b32b	0.07114252
141	0x3e6b4b72	0.22977999
142	0x3faa6f1e	1.331516
143	0x3f15a44c	0.5845382
144	0x3f197727	0.5994744
145	0xbca048a9	-0.019565897
146	0x3f96f450	1.1793308
147	0xc0161958	-2.3452969
148	0x3f50517d	0.8137434
149	0x3ea4acc4	0.3216306
150	0x3f7e2534	0.9927552
151	0x3f175685	0.59116393
152	0xbd851de4	-0.06499842
153	0xbe8e0288	-0.27736306
154	0xbdbeaba8	-0.093100846
155	0xbd9d5388	-0.07681948
156	0xbff0a1f8	-1.8799429
157	0x3f91e0b5	1.13967
158	0x3e199e49	0.15001787
159	0xbf19cd03	-0.6007845
160	0xbf60b251	-0.8777209
161	0xc00b5af0	-2.1774254
162	0xbde47037	-0.11154216
163	0xbd6c76cb	-0.057730477
164	0xbd8b8a99	-0.06813545
165	0xbdde7d32	-0.10863723
166	0x3e83ca85	0.25740448
167	0x3c6b5190	0.014362708
168	0xbd0aefb1	-0.033919994
169	0x3e1ea9cd	0.15494461
170	0xbc2ec3b7	-0.010666779
171	0x3e94ff61	0.2910109
172	0xbf74cb87	-0.9562306
173	0x3ea2dbdb	0.3180836
174	0x3cf7470d	0.030185247
175	0xbce492be	-0.027902003
176	0x3f091373	0.535453
177	0xbff2d3f0	-1.8970928
178	0xbeb88b38	-0.36043715
179	0xc031dc3e	-2.7790675
180	0xbfc24c38	-1.517951
181	0xbef568e9	-0.47931603
182	0x409bf065	4.873095
183	0x3b8c374e	0.004279054
184	0x3f472da0	0.77803993
185	0xbc7547ce	-0.014970733
186	0x3f00a9b7	0.50258964
187	0x3ed490f2	0.41516834
188	0x3f135a86	0.5756
189	0x3d131165	0.03590526
190	0x3ebe93d1	0.3722215
191	0x401e7414	2.4758348
192	0xbee1a222	-0.4406901
193	0x3eb02754	0.34405005
194	0x3f3343ee	0.7002553
195	0x3f4edc76	0.80805147
196	0xbf8fb301	-1.1226503
197	0x3e1978b7	0.14987455
198	0x3edd70c1	0.43250087
199	0x3fb710e8	1.4302034
200	0xbe8a19f5	-0.2697293
201	0x3ed6509f	0.41858384
202	0x3f4f2652	0.8091785
203	0x3f35b35d	0.7097681
204	0xbcc5ff85	-0.024169693
205	0x3e431066	0.19049224
206	0x405bbfa5	3.433572
207	0x3ec22085	0.37915435
208	0x40119339	2.2746108
209	0x3f8462ab	1.0342611
210	0x3efef12b	0.49793372
211	0xc00187f5	-2.0239232
212	0x3d0af6a1	0.03392661
213	0x3f238751	0.6387835
214	0xc01110af	-2.2666433
215	0x3e8beb99	0.27328184
216	0xbfb3ef2c	-1.4057364
217	0x3ed02c63	0.40658864
218	0xbf5eb245	-0.8699077
219	0x3f1d7a45	0.61514693
220	0x3d6a549b	0.057209592
221	0x3efd2e9f	0.49449632
222	0xbd879d5a	-0.06621809
223	0xbe1db4cc	-0.15401
224	0xbea458a6	-0.32098883
225	0x3e107b01	0.14109422
226	0x3f9d7f5b	1.2304491
227	0x406889dd	3.6334145
228	0xbf095fa3	-0.53661555
229	0xbc2a50a9	-0.010395207
230	0x4035e018	2.8418026
231	0xbc92aa89	-0.017903583
232	0xbf9eb901	-1.2400209
233	0x3ec8b787	0.3920252
234	0x3d809808	0.06278998
235	0xbddcd7f2	-0.10783376
236	0x3f87503e	1.0571363
237	0xbf0d89f5	-0.5528863
238	0x3cfe8999	0.031071471
239	0x3f0bd38c	0.5461967
240	0xbf090f6c	-0.53539157
241	0x3d55402d	0.052063156
242	0x3eeb40bb	0.45947823
243	0x3e4d4028	0.20044005
244	0xbda8634b	-0.08222064
245	0xbfa97928	-1.3240099
246	0xbd35adcd	-0.044355202
247	0xbf610dce	-0.8791169
248	0x3e833cc5	0.256323
249	0x40584a6f	3.379543
250	0x3d17d8d7	0.03707203
251	0xbf1c11f5	-0.609649
252	0x3e9030e5	0.28162304
253	0xbf7f84b9	-0.99811894
254	0x3e1c49de	0.15262553
255	0x3eb90c6b	0.36142287

net.2.bias f4 [128]
0	0x3f7cc128	0.98732233
1	0x3f5cc274	0.8623421
2	0xbe11cd4d	-0.14238472
3	0xbdc58a41	-0.096455105
4	0x3f6b9ac6	0.9203304
5	0xbea8633a	-0.32888204
6	0x3c91565e	0.017741378
7	0x3cd4d995	0.025982657
8	0x3f654076	0.89551485
9	0x3f71732c	0.94316363
10	0x3cf4fb9f	0.029905139
11	0xbd5a6dec	-0.053327486
12	0xbd9eede3	-0.07760217
13	0x3d441e10	0.047880232
14	0xbd340e7a	-0.04395912
15	0xbe1498d9	-0.14511432
16	0xbda6d342	-0.08145763
17	0x3f5dd8fb	0.8665921
18	0x3f447482	0.76740277
19	0xbe909de4	-0.2824546
20	0x3f77ef65	0.9684966
21	0x3f609332	0.877246
22	0x3d22c6aa	0.039740242
23	0xbc573ba9	-0.013136783
24	0x3d94e4f1	0.072702296
25	0x3f3e422e	0.7431973
26	0xbd98a5dc	-0.0745351
27	0x3c2458d9	0.010030949
28	0x3f7be2a3	0.98392695
29	0xbdccfef4	-0.10009566
30	0x3f70c6d8	0.9405341
31	0xbd4bed81	-0.04978705
32	0xbeeebf73	-0.4663044
33	0xbd9ec9f6	-0.07753365
34	0x3cc538f5	0.02407501
35	0x3f730b13	0.9493877
36	0xbdc6949f	-0.09696316
37	0x3f625301	0.88407904
38	0x3f6775d7	0.90414184
39	0x3f6860b8	0.9077258
40	0x3f594a16	0.8487867
41	0x3f75c896	0.96009195
42	0xbec106e8	-0.37700582
43	0xbed84be3	-0.42245397
44	0x3f71cfa9	0.9445749
45	0x3f70dfb7	0.9409136
46	0x3f8904d6	1.0704601
47	0x3f84c989	1.0374004
48	0x3d0974bb	0.03355859
49	0x3f712eea	0.9421221
50	0x3f7f7b97	0.9979796
51	0x3f84ff86	1.039048
52	0x3d331bec	0.0437278
53	0x3f5964da	0.8491951
54	0x3f819cba	1.0125954
55	0x3f875cef	1.0575236
56	0xbd320984	-0.043466106
57	0x3f8571f8	1.0425406
58	0xbdb89a0b	-0.09013756
59	0x3f22d0a3	0.63599604
60	0x3eab18c8	0.33417344
61	0x3f8556f7	1.0417165
62	0xbc995d30	-0.018721193
63	0xbdb988db	-0.09059306
64	0xbbb5dabf	-0.005549758
65	0x3cf9dffa	0.030502308
66	0x3f4e9a76	0.8070444
67	0x3f715224	0.9426596
68	0x3f8187d6	1.0119579
69	0x3f7a17fd	0.97692853
70	0x3cc3c0e2	0.023895685
71	0xbdb07e49	-0.08617837
72	0x3f6cad45	0.9245189
73	0x3f3836a9	0.71958405
74	0x3f809a50	1.0047092
75	0xbdce42ad	-0.10071311
76	0x3f713f5b	0.942373
77	0xbf0968e0	-0.5367565
78	0xbe76502c	-0.2405402
79	0x3e3b9f76	0.18322548
80	0x3f6ca98e	0.9244622
81	0x3f64d186	0.8938221
82	0x3f6b0c54	0.91815686
83	0x3f87985a	1.0593369
84	0xbd704c72	-0.058666654
85	0xbd847f1b	-0.06469556
86	0x3f70c8c8	0.9405637
87	0x3f64530d	0.89189225
88	0xbd8aa1d0	-0.067691445
89	0x3f858e06	1.0433967
90	0xbd3e0aaf	-0.046396907
91	0xbd62c8a2	-0.05536712
92	0x3f73e764	0.9527495
93	0x3f74c06e	0.95606124
94	0x3d73d206	0.059526466
95	0x3f805006	1.0024421
96	0x3d5b8122	0.053589948
97	0x3f77687b	0.966438
98	0x3f80bac7	1.0057
99	0xbe02af31	-0.12762143
100	0xbdaa29bd	-0.08308742
101	0x3f6bbde9	0.92086655
102	0x3f6622b0	0.8989668
103	0x3f66d5f9	0.90170246
104	0x3f1f06ca	0.62119734
105	0x3f73ce90	0.95237064
106	0xbd7fddc8	-0.062467366
107	0x3f82a902	1.0207827
108	0x3f192679	0.5982433
109	0x3f261b20	0.6488514
110	0x3c899e94	0.016799249
111	0x3f6a3416	0.91485727
112	0xbe8214f3	-0.25406608
113	0xbdc6e09c	-0.097108096
114	0xbd4bf56f	-0.04979461
115	0x3f74c29c	0.9560945
116	0xbcd08bc7	-0.025457276
117	0x3f79c8d6	0.97572076
118	0x3f639b9c	0.88909316
119	0x3f43e081	0.7651444
120	0x3f87657f	1.0577849
121	0xbd93d6b5	-0.072186865
122	0x3f7d1d34	0.98872685
123	0x3f772071	0.96533877
124	0x3f5838bf	0.8446159
125	0xbcffda35	-0.031231979
126	0x3f862afe	1.048187
127	0xbde11956	-0.109911606

net.4.weight f4 [4, 128]
0	0x3ecbdf6d	0.39818898
1	0x3ebeb603	0.3724824
2	0x40929099	4.580151
3	0xbd3a0179	-0.04541156
4	0x3ed717fb	0.42010483
5	0x4018eeb5	2.3895695
6	0xbd83156f	-0.064005725
7	0xbd0dcc07	-0.034618404
8	0x3f9b0400	1.2110596
9	0x3f0c35ab	0.5476939
10	0x3c165eff	0.009177922
11	0xbd958952	-0.073015824
12	0x3d1bf40b	0.038074534
13	0x3ed85bdc	0.42257583
14	0x3d8591ca	0.06521948
15	0x408941fb	4.2893043
16	0x3d1bd5b1	0.03804559
17	0x3ee3d30e	0.4449696
18	0x3ea52e92	0.32262093
19	0xc093dedb	-4.620954
20	0x3ec8d59f	0.3922548
21	0x3eec489d	0.4614915
22	0xbce0d02f	-0.02744302
23	0x3d40140a	0.04689411
24	0x3c2e9c00	0.0106573105
25	0x3e8017b1	0.25018075
26	0xbd12f533	-0.03587837
27	0x3d1c206f	0.03811687
28	0x3eefc259	0.46827963
29	0x3d16a69b	0.03677998
30	0x3f09d2d5	0.5383733
31	0xbd156e50	-0.036482155
32	0xbed61a9b	-0.41817173
33	0x40cba744	6.364168
34	0xbd9740b8	-0.07385391
35	0x3ec4164c	0.3829826
36	0xbc02e33a	-0.007988745
37	0x3f61408b	0.8798911
38	0x3f2ce1d7	0.67532104
39	0x3f0effab	0.5585887
40	0x3f073b7b	0.52825135
41	0x3f531c30	0.82464886
42	0x40656e27	3.5848482
43	0xc088c88f	-4.2744823
44	0x3edd3a9d	0.4320878
45	0x3e9e5c20	0.3092966
46	0x3f28a376	0.6587442
47	0x3f120964	0.5704558
48	0x3b9eb532	0.0048433775
49	0x3f08fb80	0.5350876
50	0x3f2433a5	0.64141303
51	0x3f5cf892	0.8631679
52	0xbc054d86	-0.008136159
53	0x3ea9b0d2	0.33142716
54	0x3f150cdf	0.58222765
55	0x3ee87e44	0.45408833
56	0x3c960157	0.018311186
57	0x3f02e491	0.51130015
58	0x3ab816e1	0.0014044904
59	0x3c5a1226	0.013309991
60	0x3fa7c35d	1.3106495
61	0x3f0aebbe	0.54265964
62	0xbbcf98f8	-0.006335374
63	0xbcbf2435	-0.023332695
64	0xbcebb21c	-0.028771453
65	0x3d2fd806	0.042930625
66	0x3da4da12	0.08049406
67	0x3f073787	0.52819103
68	0x3f075dae	0.5287732
69	0x3f2d49ff	0.67691034
70	0x3dd6ed0f	0.10494434
71	0xbcb20154	-0.021729149
72	0x3f0c9e6b	0.54929227
73	0x3f811483	1.0084385
74	0x3f098aa0	0.5372715
75	0xbd84e6a4	-0.06489304
76	0x3f12393c	0.5711858
77	0xc0f1c5b9	-7.555386
78	0x41012c2f	8.073287
79	0x3fa89aa5	1.3172194
80	0x3ee0f22f	0.4393477
81	0x3f668220	0.90042305
82	0x3ee079df	0.4384298
83	0x3f2c5339	0.6731449
84	0x40947f18	4.6405144
85	0x3d5b1cf5	0.053494412
86	0x3f0d1d7d	0.5512312
87	0x3f0ad355	0.5422872
88	0xbc72cbe1	-0.014819116
89	0x3f0c11a6	0.5471443
90	0xbc0d2e27	-0.008616961
91	0xba81215e	-0.0009851863
92	0x3e9610ea	0.2930978
93	0x3f171f32	0.59031975
94	0xbc7b923d	-0.01535469
95	0x3f8a5413	1.0806907
96	0xbd175f4d	-0.03695612
97	0x3f0ffee3	0.562483
98	0x3f149181	0.5803452
99	0x3d96dfbc	0.07366893
100	0x3dc2a1c0	0.095035076
101	0x3ef11961	0.47089675
102	0x3f08686b	0.5328433
103	0x3ec5d878	0.38641715
104	0x4062252a	3.5335183
105	0x3f29617a	0.6616436
106	0x3b69d4d5	0.0035679836
107	0x3f26ac47	0.65106624
108	0x4082eb80	4.0912476
109	0xbd115a75	-0.035486657
110	0x40c9a641	6.3015447
111	0x3ec3a7e8	0.3821404
112	0x40f38a73	7.6106505
113	0xbd4c7823	-0.04991926
114	0x3cec0c58	0.02881448
115	0x3f5a9889	0.85389
116	0x3ccc01e0	0.024903238
117	0x3f2dc02e	0.6787137
118	0x3f1d8a85	0.6153949
119	0x3f8c274c	1.0949492
120	0x3f1b063e	0.605564
121	0xbcdaf8b8	-0.026729926
122	0x3ed08157	0.40723678
123	0x3f5d68fe	0.8648833
124	0x3f448177	0.7676005
125	0xbdb47130	-0.08810651
126	0x3fc7fb13	1.5623497
127	0x3d11ccfc	0.03559588
128	0x3f0fd4cc	0.5618408
129	0x3ea68649	0.32524326
130	0x40964249	4.6955914
131	0xbc9dfa0b	-0.019284269
132	0x3eedcd56	0.4644572
133	0xc0c8e4b8	-6.27792
134	0xbd77d878	-0.060509175
135	0xbccd9489	-0.025095241
136	0xbe390924	-0.18069893
137	0x3f071069	0.52759415
138	0xbba6d727	-0.005091566
139	0x3d097667	0.033560183
140	0x3d959b0c	0.073049635
141	0xbe9e7044	-0.30945027
142	0x3d08e6f8	0.033423394
143	0x4037bef6	2.8710303
144	0xbd3077e4	-0.043083087
145	0x3ee9e5fb	0.45683274
146	0x3f46e44a	0.7769209
147	0x40b8ffbe	5.7812185
148	0x3f1bb98f	0.60830015
149	0x3ef88c37	0.48544475
150	0xbd581933	-0.052758407
151	0xbcfd658a	-0.030932207
152	0xbd57266a	-0.05252687
153	0x3fb08824	1.3791547
154	0x3a837754	0.0010030069
155	0xbd7adf80	-0.061248302
156	0x3f566f49	0.8376356
157	0x3be3964a	0.006945406
158	0x3f17da05	0.59317046
159	0x3c804d4e	0.015661862
160	0xc0a37486	-5.107974
161	0x40ea9f58	7.331951
162	0x3ceec811	0.029148133
163	0x3f1ccea1	0.6125279
164	0xbd3d88d1	-0.046273056
165	0x3fb809a4	1.4377942
166	0x3ec02b4e	0.3753304
167	0x3f3a8032	0.7285186
168	0x3ef618f4	0.48065913
169	0x3f83a0ff	1.0283507
170	0x3ff9cecb	1.9516233
171	0x404d016d	3.203212
172	0x3f0fd186	0.5617908
173	0x3f28b3df	0.6589946
174	0x3f07a51e	0.52986324
175	0x3f0e2db0	0.55538464
176	0xbd19ca99	-0.037546728
177	0x3f1b81d7	0.60744995
178	0x3eeb727a	0.45985776
179	0x3ea8c023	0.3295909
180	0x3bf4728d	0.0074599446
181	0x3f1efff1	0.62109286
182	0x3f0fc92f	0.56166357
183	0x3f292a60	0.66080284
184	0x3d0dcf0c	0.034621283
185	0x3f00a840	0.5025673
186	0xbd3bdf0d	-0.045867015
187	0x3ee9cdda	0.45664865
188	0xbfde03da	-1.7344925
189	0x3f19dd8d	0.60103685
190	0xbc6f054c	-0.014588665
191	0xbc43d0e4	-0.011951659
192	0xbd2c1a70	-0.0420174
193	0xbd1ede43	-0.038786184
194	0x3f47b635	0.780124
195	0x3f2f7ec3	0.685528
196	0x3f1f02dd	0.62113744
197	0x3f0c4763	0.5479643
198	0xbd9110b7	-0.07083266
199	0xbcd9ec7e	-0.026602026
200	0x3f23fb4f	0.6405534
201	0x3f9479d5	1.159968
202	0x3f188f50	0.5959368
203	0xbd81c6f3	-0.06336775
204	0x3f8c53f3	1.0963119
205	0xc0966b25	-4.700579
206	0xc0c16ab1	-6.044274
207	0x4078c3ad	3.886943
208	0x3f151221	0.5823079
209	0x3e8baebb	0.27281746
210	0x3f1c1c31	0.60980517
211	0x3f2ddc62	0.679144
212	0x40c5b43a	6.1782503
213	0x3b6275fc	0.0034555187
214	0x3f12ea39	0.57388645
215	0x3f5eab04	0.869797
216	0x3da862cc	0.08221969
217	0x3eef78f5	0.4677197
218	0xbd26a5df	-0.04068553
219	0x3b8e1fd0	0.0043372884
220	0x3f2b0534	0.66804814
221	0x3f03465f	0.5127925
222	0xbd99bd6b	-0.07506832
223	0x3dca2732	0.09870757
224	0x3de733f2	0.11289205
225	0x3f19ebae	0.60125244
226	0x3ef3c333	0.47609863
227	0x3cf59ca2	0.029981915
228	0xbd63de94	-0.05563219
229	0x3f02d786	0.5111011
230	0x3f09f388	0.53887224
231	0x3f07fc83	0.5311968
232	0xbeffea46	-0.49983424
233	0x3ee9851d	0.4560937
234	0x3d8a5f04	0.06756404
235	0x3f14f0fb	0.58180207
236	0x3e1d8ea1	0.1538644
237	0x3f1867f5	0.59533626
238	0x3fe15842	1.7605059
239	0x3f12f98d	0.57412034
240	0x409537d7	4.6630664
241	0xbc813fa9	-0.015777426
242	0x3cda6eea	0.026664216
243	0x3e9a93ab	0.30190787
244	0x3c3eb439	0.011639648
245	0x3f124cf4	0.5714867
246	0x3eefc5b5	0.46830526
247	0x3f8a5019	1.0805694
248	0x3f0b85ad	0.5450085
249	0xbca8eabe	-0.020619746
250	0x3f266641	0.6499978
251	0x3e9f5ff4	0.31127894
252	0x3f0a1604	0.53939843
253	0xbc8826b0	-0.01662001
254	0x40357bde	2.8356853
255	0xbd074eb8	-0.033034056

net.4.bias f4 [4]
0	0x3f812522	1.0089457
1	0x3f539480	0.8264847
2	0x3f669cd2	0.9008304
3	0x3f21db47	0.63225216
