python_version/deep-learning/model.pth (torch, 202429 bytes, 6 tensors)

net.0.weight f4 [128, 256]
000000 f4 82 bf bc 01 40 79 bf 4d ab 9a 3e 5c 43 aa bf
       -0.023377873 -0.9736329 0.30208817 -1.3301806
000010 89 da 16 c0 59 91 42 bf e7 57 f2 be c0 04 e8 3f
       -2.3570883 -0.7600303 -0.4733269 1.812645
000020 2f 83 c7 3a a0 fd 8c bb e8 63 c4 bc ac 85 f9 bc
       0.0015221591 -0.0043026954 -0.02397342 -0.030459248
000030 14 b8 4c bd 40 56 c2 bc 4a 7c 16 bd 20 72 9d 3b
       -0.049980238 -0.023722768 -0.036739625 0.0048048645
000040 c8 de 30 3d 08 17 34 bf 41 4d c1 bf 51 7e 66 3e
       0.04318121 -0.7034764 -1.5101701 0.22509123
000050 a0 b2 a7 be 46 ae a4 bf 1d 21 fd be fe 4c dd bf
       -0.32753468 -1.2865684 -0.49439326 -1.7289121
000060 d4 35 82 3e 64 d3 b4 3c 04 64 28 bd 38 7d e3 3c
       0.25431693 0.022073455 -0.041111007 0.02776967
000070 58 64 3c 3c c8 82 2c 3c a0 df 33 3b 5a 99 5d 3d
       0.011498533 0.010529228 0.0027446523 0.054101326
000080 70 92 cf 3c 1e ba bb be ce 95 e7 3e bc f8 0a bf
       0.025338382 -0.36665434 0.4523148 -0.5428579
000090 59 c4 29 bf 25 df 35 bc 17 a7 51 bf 6e 6b 3d 3f
       -0.6631523 -0.011100565 -0.81895584 0.7399205
0000a0 ab d0 d1 3c c8 86 75 3c 48 01 13 bd b8 72 63 3c
       0.025612196 0.014985748 -0.035889894 0.013882332
0000b0 ac fd ef bc 84 e3 b6 3c 40 73 0b bc e4 6b 80 bc
       -0.029295765 0.022325285 -0.008511364 -0.015676446
0000c0 30 94 b6 bc 82 c2 13 bf e8 0e b2 bf cd dc 4c 3f
       -0.022287458 -0.5771867 -1.3910799 0.80024415
0000d0 b9 59 26 c0 ad 0a c5 bf 61 37 c3 3f c3 d8 99 bf
       -2.5992262 -1.5393883 1.5251275 -1.2019275
0000e0 29 e0 00 be 48 7d 13 bc 50 69 7a 3d 68 23 7f bc
       -0.1258551 -0.009002037 0.06113559 -0.015572406
0000f0 a0 14 7a 3b 70 f8 ef 3c 30 18 c7 bc 22 42 37 3d
       0.0038159266 0.029293269 -0.024303526 0.044740804
000100 ec 3c c9 3c 50 1c 97 bf d5 1f ca bf 9a a7 9f 3f
       0.024565183 -1.1805515 -1.5790964 1.2473023
000110 05 5d 56 3f 7f ad 10 bf 0e e2 0b bf 3c 0b 6b 3c
       0.83735687 -0.56514734 -0.5464181 0.01434594
000120 b9 21 b1 3f 26 be 43 3d 90 4b e3 3c 68 2a 1d bc
       1.3838416 0.04778876 0.027745992 -0.00959263
000130 24 b6 1a 3d 48 2d 9b 3c e0 d0 b8 3b 34 f0 e5 3c
       0.03777136 0.01894249 0.005640134 0.02806864
000140 94 56 1d bd 6e 83 05 c0 ba c9 df bf 95 0e 2e bf
       -0.038412645 -2.0861468 -1.7483437 -0.67991
000150 61 49 2e bf b0 62 ca 3e eb aa ad bf 78 df d8 bf
       -0.6808072 0.39528418 -1.3567785 -1.6943197
000160 b1 49 76 3f 40 fb 0b bc 90 76 cb bb 68 53 04 bc
       0.96206194 -0.008543789 -0.006209202 -0.008076526
000170 ea 6a 28 3d 86 40 64 bd 4c f0 7d 3d 40 ea 12 3d
       0.041117586 -0.055725597 0.061996743 0.03586793
000180 c4 d7 9e bc c2 a2 08 c0 5b 11 88 bf 0c b3 e3 bf
       -0.019389994 -2.134934 -1.0630296 -1.7789016
000190 09 64 11 3f 3b c3 90 be 6a a5 e9 3e 89 41 f8 be
       0.56793267 -0.2827395 0.45634013 -0.484875
0001a0 2d d8 9d 3f 1c 2b 4a 3d ce e7 4c 3d b0 52 fe bb
       1.2331597 0.04935752 0.050025754 -0.007761322
0001b0 8c 3d 88 3c 22 90 2b 3d 60 f1 30 3d ee e9 78 3d
       0.01663091 0.041885503 0.043198943 0.060769968
0001c0 c0 ad c6 3b fb ac a2 bf 94 99 dc be 4b 2b 00 bf
       0.006063193 -1.270904 -0.4308592 -0.5006606
0001d0 ec 22 1a be 58 48 00 3e c3 a7 c4 bf 4b b8 2b bf
       -0.15052384 0.12527597 -1.5363697 -0.67078084
0001e0 23 ac 8d bf 10 94 b8 bc fa e9 34 3d 36 d8 2b 3d
       -1.1068157 -0.02253154 0.04416845 0.04195424
0001f0 26 72 42 bd ac 69 b7 3c a8 50 dc 3c 74 49 b1 bc
       -0.04747214 0.022389255 0.026893929 -0.02164147
000200 44 0b 07 bd eb 96 97 be a9 c7 97 bf 68 ab bb bf
       -0.032969728 -0.2960733 -1.1857806 -1.4661684
000210 b3 80 16 3f bf 89 df bf 48 86 a4 bf f4 a9 cc 3d
       0.5879013 -1.7463912 -1.2853479 0.099933535
000220 86 8e 2e bf 2c 00 a6 bc 78 5c 76 bd 80 e9 0a 3c
       -0.68186224 -0.020263754 -0.06014678 0.008478522
000230 dc 9d 2d 3d b8 dd 5c 3c f0 19 8b 3b 48 90 52 3c
       0.042386875 0.013480596 0.0042450354 0.012851782
000240 c4 46 a7 3c f0 7b 93 bf 28 1b 16 c0 80 17 11 bf
       0.020419486 -1.1522198 -2.3454075 -0.56676483
000250 90 5b 03 be 77 74 ff 3c d1 85 25 3f 98 43 18 bf
       -0.12827897 0.031183464 0.6465731 -0.5947814
000260 87 a6 b6 3f 18 8b b7 bc 78 09 16 3c 60 22 63 bd
       1.426957 -0.022405192 0.009157531 -0.055452704
000270 00 4a 2b bc e6 3c 10 3d ac 43 1a 3d 28 47 5c 3d
       -0.010454655 0.035214327 0.037662193 0.053778797
000280 e0 2b ce 3c bf 99 44 bf 18 4c f1 bf 00 c6 30 c0
       0.025167406 -0.767971 -1.8851347 -2.762085
000290 3f 1b 4f be be 3e 84 3f 66 05 6d c0 56 d0 0e be
       -0.20225237 1.0331647 -3.7034545 -0.13946661
0002a0 b0 44 ce bd 50 2f fd 3b b4 41 68 3d 30 85 8e bb
       -0.10071695 0.0077265874 0.056703284 -0.0043493733
0002b0 5c 48 22 3d 84 55 d9 bc e0 e7 27 bb c0 ba 21 3b
       0.03961979 -0.026530035 -0.0025620386 0.0024677962
0002c0 00 78 70 bd 7b e1 09 be 0e 68 a2 be 1b aa 1f 3f
       -0.05870819 -0.1346492 -0.31720012 0.62368935
0002d0 d3 a7 cc bf 67 50 03 c0 10 36 80 bf dc 89 fe bf
       -1.5988716 -2.0517824 -1.0016499 -1.9885821
0002e0 e0 db e2 3e 2c 11 59 bd c4 91 44 3d 78 42 a5 3c
       0.44308376 -0.052994892 0.047990575 0.020173296
0002f0 1e f6 3f 3d b0 fa 98 3c 12 90 33 bd 84 df 84 3c
       0.046865575 0.018674225 -0.043838568 0.016219862
000300 6e a8 4e bd 52 59 d1 be 54 47 b6 be a1 fd 04 be
       -0.050453596 -0.40888458 -0.35601294 -0.12987377
000310 bd 89 35 be f2 b1 e8 bf 41 b4 10 3f c4 4d c5 3d
       -0.17728324 -1.8179305 0.56525046 0.09633973
000320 90 30 98 3e 66 72 38 bd 96 17 36 bd 80 f8 86 3b
       0.2972455 -0.045030974 -0.044456087 0.004118979
000330 1c a0 cd 3c a8 d0 21 bd c0 72 ae 3a 34 05 bd bc
       0.02510076 -0.03950563 0.0013309345 -0.02307377
000340 34 b2 61 3d a8 38 7f 3e 7b cc 2f 3e 3a 20 e0 bf
       0.05510159 0.24923956 0.17167847 -1.7509835
000350 0c a1 a7 bf 2b 37 cd bd 33 26 df bf 54 a0 a7 bf
       -1.3096023 -0.10020288 -1.7433532 -1.3095803
000360 cb bb 4c bd 94 dd 5d bd 84 bd a6 bc 30 2d e3 bc
       -0.04998378 -0.05416639 -0.02035404 -0.027731508
000370 5c 23 3d 3d 08 0f 83 bc 9c b6 a5 3c ca 01 08 3d
       0.0461763 -0.015998378 0.020228676 0.03320483
000380 48 91 a8 bc cd ae 5a bf 83 e0 f0 3e fa a1 ca 3e
       -0.020577088 -0.85422975 0.4704629 0.39576703
000390 b8 9f d2 be 74 f6 05 3f 65 79 4b bf 3f c5 66 be
       -0.4113748 0.5232918 -0.7948211 -0.22536181
0003a0 de b4 0e bf 22 db 57 3d a2 e5 67 3d 44 e2 ee 3c
       -0.5574473 0.052699216 0.05661548 0.029160626
0003b0 38 f4 15 bd 68 a9 2d bd 04 27 dc bc 14 04 1a bd
       -0.03660986 -0.042397887 -0.026874073 -0.037601545
0003c0 56 36 1a 3d 1f 92 f8 be bf 8a 4e be 12 b5 16 bf
       0.037649475 -0.48548982 -0.20170115 -0.5887004
0003d0 11 8e 89 3d 5c 56 9d 3d 56 ef 00 40 f6 a2 50 3d
       0.0671655 0.07682487 2.014608 0.05093666
0003e0 fc d7 86 3e 90 23 eb 3c 30 90 df bb a4 97 75 bd
       0.26336658 0.028703481 -0.0068226084 -0.05995907
0003f0 2e 68 4f 3d 70 2c 17 3d 4e b6 4f bd 00 9a 64 bd
       0.050636463 0.036907613 -0.05071097 -0.05581093

net.0.bias f4 [128]
000000 9c fd 6f c0 d5 ac 37 c0 74 4b 6a c0 f8 27 41 c0
       -3.749854 -2.8699238 -3.6608553 -3.0180645
000010 dd 8a 1b c0 d4 84 0b c0 8b 40 24 c0 76 2b 3c c0
       -2.4303505 -2.1799822 -2.5664394 -2.9401526
000020 e0 c8 47 c0 06 33 dc bf 49 cb 49 c0 71 cd 34 c0
       -3.1216354 -1.7203071 -3.1530325 -2.8250391
000030 0d 69 4b c0 4d cd 2d c0 85 f8 47 c0 cf 55 19 c0
       -3.1782868 -2.7156556 -3.1245434 -2.3958623
000040 15 e3 19 c0 db 71 5d c0 1e 8a 17 c0 d3 c9 0f c0
       -2.404485 -3.4600742 -2.367805 -2.2466934
000050 80 82 19 c0 10 da 26 c0 60 9c 0f c0 cd 99 5d c0
       -2.39859 -2.6070595 -2.2439194 -3.4625123
000060 1f 24 32 c0 3f ac 10 c0 ec ce 65 c0 03 df 36 c0
       -2.7834547 -2.260513 -3.5907545 -2.8573616
000070 a2 57 03 3f ea 67 0b 3d 58 4c 1f c0 fb 1f ff bf
       0.5130559 0.034034647 -2.4890347 -1.9931635
000080 52 7a 08 c0 0a da 35 c0 3a bd 49 c0 85 e7 88 40
       -2.1324658 -2.841433 -3.1521745 4.2782617
000090 a3 2c 53 c0 3e 90 2b c0 ae 34 27 c0 38 ad 41 c0
       -3.2995994 -2.6806788 -2.6125903 -3.0261974
0000a0 04 b8 0b c0 23 49 d0 bf d1 08 58 c0 7c 7e f2 bf
       -2.1831064 -1.627232 -3.375538 -1.894485
0000b0 f4 fd 67 c0 67 42 bb bf 8c 76 24 c0 da 08 48 c0
       -3.624875 -1.4629639 -2.5697355 -3.1255403
0000c0 36 82 5a c0 cd 11 b6 bf dc 24 2b c0 06 ec 39 c0
       -3.4141974 -1.4224182 -2.6741247 -2.9050307
0000d0 40 fa f1 be 52 23 ab ba 88 b5 21 c0 e4 97 63 c0
       -0.47261238 -0.0013056791 -2.5267048 -3.5561457
0000e0 bf 8b 0b c0 b8 54 68 c0 4f f6 14 c0 51 ba bf bf
       -2.1804044 -3.6301708 -2.3275335 -1.4978734
0000f0 b8 2b 34 c0 db 55 79 3f 6b 81 79 c0 da d1 47 c0
       -2.8151684 0.9739663 -3.898524 -3.1221833
000100 81 9a 44 c0 f2 d9 88 c0 b7 ec 22 c0 50 40 3f c0
       -3.0719302 -4.2766047 -2.545698 -2.9883003
000110 70 03 5c c0 f9 0a 32 c0 6f 3d 2b c0 d5 30 10 c0
       -3.4377098 -2.7819197 -2.6756246 -2.2529805
000120 e9 f3 45 c0 a9 90 92 40 c9 d2 68 c0 de e7 59 c0
       -3.093012 4.5801587 -3.6378653 -3.404777
000130 48 87 8a c0 fa f1 26 c0 cd 50 31 c0 d5 90 34 c0
       -4.329014 -2.608519 -2.7705567 -2.8213398
000140 f1 f3 3b c0 22 0c 6a c0 5b 08 1d c0 0e 70 38 c0
       -2.936764 -3.6569905 -2.453635 -2.8818393
000150 e1 3b 26 c0 96 27 2a c0 4c e2 15 c0 2c fd 30 c0
       -2.5974047 -2.6586661 -2.341937 -2.7654524
000160 36 68 f4 bf 57 54 a1 bf f4 a1 18 c0 2e d3 1e c0
       -1.9094303 -1.2603863 -2.3848848 -2.4816394
000170 62 ba 19 c0 a7 68 5a c0 5b 14 2c c0 db 6c 58 c0
       -2.402001 -3.4126375 -2.6887424 -3.381644
000180 0e 8b 2a c0 d4 c1 b4 3e 9c f5 16 c0 d5 fd 48 c0
       -2.6647372 0.3530413 -2.3587408 -3.1404927
000190 64 65 4a c0 7d fb 28 c0 f6 be 3e c0 4b d0 2a c0
       -3.1624384 -2.6403496 -2.9804053 -2.6689632
0001a0 f6 3d 3a c0 e9 db 65 c0 67 74 18 c0 13 17 2a c0
       -2.9100318 -3.5915473 -2.3821046 -2.6576583
0001b0 70 9a 23 c0 26 04 19 c0 2d 7f 7a c0 dd 6a 40 c0
       -2.556301 -2.3908782 -3.9140122 -3.0065224
0001c0 91 7d ee bf 51 7d 38 c0 c3 08 26 c0 c2 1a 52 c0
       -1.863207 -2.8826487 -2.5942848 -3.2828832
0001d0 50 32 25 c0 d7 ba 51 c0 32 e3 2e c0 be 46 e6 bf
       -2.5811958 -3.2770288 -2.732617 -1.7990339
0001e0 fb fb 40 c0 1e 91 4a c0 97 89 26 c0 5a 10 45 c0
       -3.0153797 -3.1651073 -2.6021478 -3.079123
0001f0 e9 69 16 c0 c3 7a 46 c0 6c 82 c8 bf 60 09 32 c0
       -2.3502142 -3.1012428 -1.5664802 -2.7818222

net.2.weight f4 [128, 128]
000000 f8 e5 93 bf 9f ca 70 3f c2 0c 83 bf c1 c4 b8 bf
       -1.1554556 0.94059175 -1.0238268 -1.4435045
000010 17 b8 df be cd 07 91 bf 91 d3 cc 3e 5a ee 46 bf
       -0.43695137 -1.1330506 0.40005162 -0.77707446
000020 b1 94 c9 bf b4 4b 26 c0 ab f1 b5 3e 3f 4a de bf
       -1.5748502 -2.5983706 0.3553594 -1.7366408
000030 3c 5f 0c c0 f8 40 c3 bf 41 f2 08 40 a7 e8 30 c0
       -2.1933126 -1.5254202 2.139786 -2.7642
000040 3c 5e 3b c0 6e 40 76 bf 64 ca 2b c0 61 a8 8d bf
       -2.9276266 -0.9619206 -2.684228 -1.106701
000050 ff f9 02 c0 ce 5c 51 3f 41 5f 26 bf 3d 4c ab bf
       -2.0465086 0.81782234 -0.64989096 -1.3382641
000060 d7 16 95 bf c6 c2 9b bf 3a 97 52 3d 45 c0 f1 bf
       -1.1647595 -1.2168815 0.051413752 -1.8886801
000070 4d 37 d5 c0 4f 9f b8 c0 a6 01 13 3c d8 88 bf be
       -6.6630006 -5.769447 0.008972561 -0.3740909
000080 4c 27 39 c0 c4 b9 c9 bf 51 dd 04 c0 14 8e 49 c0
       -2.8930235 -1.5759816 -2.076008 -3.1492968
000090 84 cc 10 bf 7a 7e 0e c0 8d d9 29 bf 31 63 3c c0
       -0.56562066 -2.2264695 -0.6634758 -2.9435542
0000a0 e9 f0 2f c0 1c f4 d6 be cd 2e 35 3f ea d3 07 c0
       -2.749079 -0.41983116 0.7077454 -2.1223092
0000b0 8d 5f 4d c0 7a 59 3e c0 0d da ab bf f3 c6 50 bf
       -3.208957 -2.9742112 -1.3425919 -0.8155357
0000c0 54 63 fa bf fb 4a 91 c0 ce 1b 2a 3e 2c 71 c1 bf
       -1.9561563 -4.540403 0.16612169 -1.5112662
0000d0 76 3f 86 c0 b1 17 9c bf 8d 9c 3f c0 39 34 db bf
       -4.1952467 -1.219473 -2.99393 -1.7125312
0000e0 42 21 13 be 73 b5 17 40 87 d5 60 3e e8 ac 3d c0
       -0.14368156 2.3704498 0.21956454 -2.9636784
0000f0 b9 40 2f 3d e4 f5 eb c0 f6 bf b9 bf 22 20 4f c0
       0.042786334 -7.373766 -1.4511707 -3.2363362
000100 ab f3 5b bf e4 8a 1b 3e 62 90 ac 3e ad 79 06 c0
       -0.8591868 0.15189701 0.33703905 -2.1011765
000110 f8 95 d9 bf 09 88 4e c0 06 0e 52 3e 87 e4 1a bf
       -1.6998892 -3.227053 0.20513162 -0.60504955
000120 72 68 df bf 44 25 4f 3f 1b 8e 80 3e 9b 8a b7 3f
       -1.7453749 0.8091624 0.25108418 1.4339174
000130 12 42 0a 3f ef bc 8b bf 75 ee eb be 32 0d 9e c0
       0.54007065 -1.0917033 -0.46080366 -4.9391108
000140 ba 9b 08 bf 14 94 c1 3d 97 57 fe bf 83 95 28 c0
       -0.5336262 0.09452072 -1.987048 -2.6341255
000150 ec 65 48 be 1a f5 3c c0 6c ac c2 bf c2 82 4a c0
       -0.1957013 -2.9524598 -1.5208869 -3.1642308
000160 c9 09 a7 3f 65 c3 75 bf aa 75 87 bf a6 5f 37 c0
       1.3049861 -0.96001273 -1.0582783 -2.865213
000170 5b 89 e4 bf c5 ce 25 c0 4e b4 bf bd 71 02 20 bf
       -1.7854418 -2.5907452 -0.09360562 -0.62503725
000180 2f c5 19 c0 ae 20 bc c0 01 58 3e c0 a3 79 61 3e
       -2.4026601 -5.878989 -2.9741213 0.22019057
000190 f7 8f b2 bf 38 1d c9 3e cf c5 38 3f 54 38 fc 3e
       -1.3950185 0.39280105 0.7217683 0.49261725
0001a0 52 2e 8f bf 54 2e c5 3e d9 dc f1 bf 83 ae 32 3e
       -1.1186011 0.38511908 -1.8895522 0.17449383
0001b0 9d 6f 7c c0 23 a4 d2 bf 70 da 71 bf 47 32 ca 3f
       -3.9443123 -1.645634 -0.94473934 1.5796593
0001c0 53 80 1a 3f ea 70 37 c0 80 c7 96 bf 4f af f0 bf
       0.6035206 -2.8662667 -1.1779633 -1.88035
0001d0 5a 38 2e c0 15 fd 93 bf cb 3c a7 bf bd 28 22 c0
       -2.7221894 -1.156161 -1.3065428 -2.5337365
0001e0 93 e1 46 c0 c7 aa a6 bf 92 e7 4e bf 42 3d 6c c0
       -3.107518 -1.3020867 -0.808221 -3.6912389
0001f0 11 3f f2 bf 5f 3e 09 bf 71 5b 9b c0 ba 9e 61 bf
       -1.8925496 -0.53610796 -4.8549123 -0.8813282
000200 40 00 cd be 1a 7f 59 3e 33 87 21 c0 4a a2 8f 3f
       -0.40039253 0.21239892 -2.523877 1.1221402
000210 04 3f 16 c0 65 45 ee bf 2f d9 14 c0 1d c8 4e c0
       -2.3475962 -1.8614928 -2.3257558 -3.230964
000220 92 8e 15 bf 94 c2 3a c0 25 a9 7e c0 05 f2 e6 3d
       -0.5842067 -2.918126 -3.9790738 0.1127663
000230 41 74 c6 bf c0 b8 9e bf a8 82 cd bf cf c0 19 c0
       -1.5504228 -1.2400131 -1.6055498 -2.402393
000240 26 0c 36 c0 10 4f f2 bf 2a 8b e9 3e 6f 69 a7 c0
       -2.8444915 -1.8930378 0.45613986 -5.2316203
000250 1a 1a 7d 3e 12 77 db bf 9b ef 32 c0 04 50 e8 be
       0.24716988 -1.7145712 -2.7958744 -0.45373547
000260 c9 be 6e bf 59 8c 72 c0 0b cf a1 bf 33 db 5a 3f
       -0.93259865 -3.7898161 -1.264131 0.8549072
000270 46 fd fc be 88 01 47 bf 97 19 3a 3f 66 f5 27 c0
       -0.49411982 -0.7773671 0.72695297 -2.624353
000280 0f 29 48 bf 11 f1 52 c0 59 c9 e3 bd d3 5d 39 c0
       -0.7818765 -3.2959635 -0.111223884 -2.8963516
000290 eb 03 56 bf d0 66 ad bf fe 4a 57 bf ad 57 ce 3e
       -0.8359973 -1.3547001 -0.84098804 0.40301266
0002a0 3f 79 c8 bf cd e1 c8 bf 90 10 66 c0 a2 64 e6 bf
       -1.5662001 -1.5693909 -3.594761 -1.7999461
0002b0 b0 ca 46 3f 61 be a9 be 77 e8 8c 3e c4 99 7e 3e
       0.77653027 -0.3315306 0.27521107 0.24863344
0002c0 7e 03 c2 be d9 c8 37 c0 54 79 13 bf 9b 85 5a c0
       -0.3789329 -2.8716338 -0.5760701 -3.4144046
0002d0 ca 3c 59 c0 f8 1d 06 c0 e7 3d d4 bf a9 34 09 c0
       -3.3943353 -2.0955791 -1.6581391 -2.1438391
0002e0 77 31 95 bd 0c 3d 4c 3f 55 44 57 bf 01 58 4d bf
       -0.07284825 0.7978065 -0.8408864 -0.8021241
0002f0 0e 24 79 3f 8b 21 7c c0 76 83 4f c0 fd a6 1d c0
       0.9732064 -3.9395473 -3.2423987 -2.4633172
000300 aa 01 25 40 c4 b2 dc bf 64 31 c2 be 18 b4 1e 3f
       2.5782266 -1.7242055 -0.37928307 0.6199355
000310 ba 78 bd 3d fe bc be 3e 0f 7c 25 3f e2 97 62 3f
       0.092515424 0.37253565 0.64642423 0.88513005
000320 c2 78 8e bf 4e 86 03 be c1 57 e4 bf 6a a6 ff bf
       -1.1130602 -0.12844202 -1.783928 -1.997266
000330 44 d8 e2 3e 6c aa df bf 13 41 12 c0 98 e4 44 bf
       0.44305623 -1.7473884 -2.2852218 -0.76911306
000340 a6 5b 97 bd ec c2 80 be 11 1c 4a bf 0c 7b 77 be
       -0.073905274 -0.25148714 -0.78949076 -0.24168032
000350 49 31 4f c0 6e ce 30 c0 f6 6f 60 c0 c9 91 1a c0
       -3.2373831 -2.7625995 -3.5068336 -2.415148
000360 bb 03 2d bf 1a c3 fc bf 91 b5 a4 bf eb 53 79 c0
       -0.6758382 -1.974704 -1.286791 -3.895747
000370 5a e7 87 bf 80 15 3c c0 3d 7b 07 bf 5d ed 41 c0
       -1.0617478 -2.9388123 -0.5292242 -3.0301125
000380 2e 04 2e 3e 15 26 12 c0 60 31 c4 bf 49 db 94 be
       0.16993782 -2.2835743 -1.5327568 -0.2907355
000390 ad eb 4d bf ed e5 cb bf 22 86 0b c0 5e 63 cf bf
       -0.8043774 -1.5929543 -2.1800618 -1.62022
0003a0 53 3b 06 c0 67 64 b2 bf c5 2d a7 3f 8e 2d 47 c0
       -2.0973709 -1.393689 1.3060843 -3.1121554
0003b0 f7 31 d5 bf 36 bc 06 c0 de 5a 37 c0 50 78 89 3f
       -1.6655873 -2.1052375 -2.864921 1.0739841
0003c0 57 29 ae 3f 78 d1 78 bf ae 21 ce bf 04 f5 02 bf
       1.3606366 -0.97194624 -1.6104028 -0.51155114
0003d0 cd eb 88 be 8b 8f 9e c0 a4 7d fa 3e d6 40 e5 3e
       -0.26742402 -4.9550223 0.4892398 0.44776028
0003e0 0f a7 d6 bf d0 96 e4 bf 0f c0 94 bf 2e ea 7d c0
       -1.6769732 -1.7858524 -1.1621112 -3.9674182
0003f0 b5 6a 91 3e 37 04 04 c0 23 cf 73 3f e0 1f e0 bf
       0.28401724 -2.0627573 0.9523794 -1.7509727

net.2.bias f4 [128]
000000 3d 66 b5 3f 76 5f c9 bf da cd c3 bd 19 04 94 40
       1.4171826 -1.5732257 -0.095607474 4.6255
000010 43 4a 45 c0 c8 4d 80 40 72 e3 8c 40 57 e8 92 40
       -3.0826576 4.009495 4.4027643 4.590862
000020 c5 b9 7b 40 df a7 88 40 4a 41 db 3f cc 7e 91 40
       3.9332135 4.270492 1.71293 4.546728
000030 45 c9 a2 3e 6d e4 e8 bf d9 e5 1a 3e 26 a7 8a 40
       0.3179418 -1.819471 0.15126742 4.332904
000040 28 62 8c 40 11 09 86 be d4 31 bf bf 63 07 a9 3f
       4.386982 -0.26178792 -1.4937081 1.3205379
000050 4c 19 90 40 6f 2e 8d 40 43 28 01 40 75 d0 94 40
       4.503088 4.411918 2.0180824 4.6504464
000060 46 52 10 3f 95 9c 4d be ab f0 f4 bf 9b 06 10 3f
       0.5637554 -0.20079263 -1.9135946 0.5626008
000070 52 6b 99 40 4f a9 8a 40 9d 87 9c 40 81 84 d9 3f
       4.7943506 4.3331676 4.8915544 1.6993562
000080 b0 e8 8f 40 44 fd fb bd d6 e3 85 bf 78 d0 8d 40
       4.497154 -0.12304166 -1.0460155 4.431698
000090 c6 2f 8e 40 39 3a 9a 40 e3 2c 9c bf 15 e0 cc bd
       4.4433317 4.8196073 -1.2201198 -0.10003678
0000a0 15 c2 76 40 35 75 6e 40 63 06 34 3f a9 e7 99 40
       3.8555958 3.7259037 0.70322245 4.809529
0000b0 48 d5 56 bf de 0b 75 3f c0 60 8a 40 4b 30 c4 bf
       -0.8391919 0.9572123 4.3243103 -1.5327238
0000c0 1c 8b 94 40 69 23 78 3e 16 86 73 40 db 0d 76 40
       4.641981 0.24232258 3.805059 3.8445957
0000d0 ad 98 95 40 ec c4 57 bd 2f 43 9b 3d 82 df 8e 3e
       4.674887 -0.052678034 0.07581174 0.27904898
0000e0 f8 5c a9 bf f6 ff 10 3f 48 5d ca be 40 90 2d 3f
       -1.3231497 0.56640565 -0.39524293 0.67798233
0000f0 62 6e c6 bf c6 cc 10 bf 0d 65 96 40 4a bf 1f 40
       -1.5502436 -0.5656246 4.6998353 2.4960504
000100 72 90 93 40 9e d9 ac be 92 ce 16 bf db 8e ac 3f
       4.6113825 -0.3375978 -0.5890895 1.3481096
000110 7f 18 87 40 66 40 84 bf c5 68 6b 40 db 8f 8d 40
       4.2217402 -1.0332153 3.6782696 4.4238105
000120 20 43 8f 40 84 25 4e 3d f7 dd 2b 3f de e8 99 40
       4.476944 0.050328746 0.67135566 4.809676
000130 7e ca 72 40 0b 16 94 40 a0 c0 10 3e eb 1b 04 bf
       3.7936091 4.627691 0.1413598 -0.516051
000140 e1 10 8a 3f 64 01 c8 3f cb 48 09 c0 83 f0 92 40
       1.0786401 1.5625424 -2.145068 4.5918593
000150 fe cf 4a 3d ff 36 5c 3e e2 ce 93 40 e5 6e cd bd
       0.049514763 0.21505354 4.6190042 -0.10030917
000160 4c 6e ac be 4e ad 93 be e8 df 41 bd f9 85 da 3f
       -0.336779 -0.28843158 -0.047332674 1.7072135
000170 09 c0 92 40 5f 5d 9f 40 7f a1 93 40 ea 39 a6 40
       4.585942 4.980148 4.613464 5.1945696
000180 9d e5 8b bf 81 c5 8a bf 52 3b 2f bc 11 c1 90 40
       -1.0929447 -1.0841523 -0.010695295 4.5235677
000190 7d 9c 0a 40 e3 b0 91 40 27 c2 94 40 a4 8c da 3f
       2.1658013 4.5528426 4.6487 1.707417
0001a0 90 a5 cd 3c 73 84 ff 3f dd dd f3 3f 12 a5 92 bf
       0.02510336 1.9962295 1.9052082 -1.1456625
0001b0 68 7a 98 40 f7 06 41 40 6c c3 87 3f 5f 0f 8f 40
       4.764942 3.01605 1.0606513 4.4706264
0001c0 22 3f 9b 40 7d d5 1f bf 5b 3e 86 40 20 5e 85 40
       4.8514566 -0.6243513 4.1951118 4.16774
0001d0 45 17 93 40 25 d6 65 3f 64 13 05 bf 95 e2 86 3f
       4.5965905 0.89779884 -0.5198271 1.0537897
0001e0 d6 85 9c 40 de 53 a3 bf e2 24 18 bd 46 44 65 bf
       4.8913374 -1.2759969 -0.03714455 -0.895573
0001f0 0f 92 20 bf e0 53 b9 bf 00 36 e8 be fe be 10 3f
       -0.6272287 -1.4478722 -0.453537 0.5654143

net.4.weight f4 [4, 128]
000000 40 b8 b8 c0 6b ed b0 bd 2c db 58 c0 a0 78 d5 3e
       -5.7724915 -0.08639034 -3.3883772 0.41693592
000010 96 a8 1d 40 97 1c 16 3f 5c 17 d5 3e d8 f4 c7 3e
       2.4634147 0.58637375 0.41619384 0.39053988
000020 64 5a b7 3f fd 67 d8 3e e9 6a 91 40 40 b3 b7 3e
       1.432446 0.42266837 4.5443006 0.35878944
000030 2e a1 3f 40 eb 4c 0b c0 ad e9 10 c0 87 78 eb 3e
       2.9942126 -2.1765697 -2.2642624 0.45990393
000040 f1 dc 8b 3e e5 72 bc c0 8e c7 16 c0 09 3b 36 40
       0.27317002 -5.889025 -2.3559299 2.8473532
000050 fa a8 61 3e 40 dc 84 3e 9e 04 3e 40 2d e4 9a 3f
       0.22037116 0.25949287 2.9690318 1.2100884
000060 06 ea 36 40 5e e9 ec 3c 1c 8e f1 bf 92 ee 39 40
       2.8580337 0.028919872 -1.8871493 2.9051862
000070 51 c9 0f 3f 77 b6 0b 3d 76 9b 1d 3f c2 6e f1 3f
       0.5616656 0.03410956 0.6156534 1.8861926
000080 76 90 cf 3e 92 52 31 3f dd 53 89 c0 26 fa 49 3e
       0.40539902 0.6926662 -4.291487 0.1972433
000090 12 7b a0 3e 26 17 0e 3f 91 4a 6a c0 56 ed 32 3c
       0.31343895 0.5550407 -3.6608012 0.010920843
0000a0 d2 79 3e 3f a3 aa 40 3f 2c 98 0d 40 8f b3 03 3f
       0.74404633 0.7526037 2.2124128 0.5144586
0000b0 d9 38 55 40 26 13 f3 3f 63 6b 9d 3e 80 f7 d7 c0
       3.3315947 1.8990219 0.30745992 -6.7489624
0000c0 b3 77 f5 3e e8 38 58 c0 f7 af 63 3f d9 e2 b2 3f
       0.47942886 -3.3784733 0.88940376 1.3975478
0000d0 8d 5c 43 3f 8c fa 28 40 70 b0 72 c0 ae db 57 40
       0.76313096 2.6402922 -3.792019 3.3727832
0000e0 a9 ea 33 c0 0b 2e 83 40 47 3c 94 3f 30 66 50 40
       -2.8111975 4.0993705 1.1580895 3.256237
0000f0 ab f5 ec c0 b9 bf 61 bf d9 b4 8d 3e 72 a1 1a 40
       -7.404989 -0.8818317 0.27677038 2.4161038
000100 de d0 ba 3e 4b b7 28 40 4e 96 24 c0 a9 13 4a 40
       0.36487478 2.6361873 -2.5716739 3.15745
000110 4c 4d ab 3d a5 e7 13 40 68 4a 35 3e b3 f7 ff 3e
       0.083643526 2.3110135 0.17704165 0.49993667
000120 0b 2b 68 3e c5 03 cf 3e ca ab 0e 40 52 ee 1d 3f
       0.2267267 0.40432563 2.2292352 0.6169177
000130 4b de 83 3f b2 49 bf 3e b4 7f ff 3f 9f f8 ff 3f
       1.0302213 0.37360913 1.9960847 1.9997748
000140 50 bb 7e 40 8d 88 87 40 d4 28 d9 bf 3b ce b6 3e
       3.9801826 4.235419 -1.6965585 0.35704216
000150 aa 7e d6 c0 5c b0 61 40 61 63 d3 3e 8b 03 2a 40
       -6.702962 3.5263891 0.41286758 2.6564662
000160 8d 26 ea 3f 46 13 cf 3f 85 72 b1 3f ca d0 68 40
       1.8293015 1.6177757 1.3863074 3.6377435
000170 de 36 87 3e ec e8 4e 3f d8 d2 ea 3e 67 b3 ae 3f
       0.26409048 0.8082416 0.45863986 1.3648499
000180 f3 53 67 c0 d2 92 39 40 3c e5 32 c0 62 13 c4 3e
       -3.6144989 2.8995862 -2.7952414 0.38296038
000190 aa da 93 40 69 63 e2 3e a6 4b 00 3f 48 1f 6a 40
       4.6204424 0.4421647 0.5011543 3.6581593
0001a0 40 8d 62 40 4e 1c 25 c0 c2 21 a2 3f d1 36 c4 c0
       3.5398712 -2.5798526 1.2666552 -6.1316915
0001b0 90 68 69 3f 9f ae 94 3f 24 19 83 40 c1 47 e3 3e
       0.91175175 1.161579 4.096819 0.4439068
0001c0 3d 62 08 3f e6 0c 22 40 a7 28 ff 3e 3f 96 a6 3e
       0.532749 2.5320373 0.49835703 0.32536504
0001d0 9b 52 d0 3e 52 8f 17 40 14 ef a2 c0 ce a1 3e 40
       0.40688023 2.3681226 -5.0916843 2.9786258
0001e0 62 ac 16 3f eb 4f a3 bf 93 27 ac 3f 91 be 53 c0
       0.58856785 -1.2758764 1.3449577 -3.3085063
0001f0 c2 d0 3f 40 de 76 5d 3f 3c 48 35 40 e4 30 58 c1
       2.9971166 0.865095 2.8325338 -13.511936
000200 a4 90 0f 40 01 88 5c 40 da 3f 3d c0 1d a1 b9 3e
       2.2432032 3.445801 -2.9570222 0.36255732
000210 f1 e8 d6 bc d5 2f f6 3e 0e ef 7b 3e ea 1b c3 3e
       -0.026234122 0.48083368 0.24602911 0.38107234
000220 f2 7d ad 3f 0d 3b a0 3d e4 28 a9 40 61 24 a9 3e
       1.355406 0.07823763 5.2862415 0.33035567
000230 28 69 45 40 9a e3 af bf ec ce 33 40 0a 9c d4 3e
       3.0845432 -1.3741333 2.8095045 0.41525298
000240 0f 72 46 3e 59 93 81 c0 fb 72 2e c0 d2 11 62 40
       0.19379447 -4.049237 -2.7257679 3.5323377
000250 0d 55 06 3f 76 8d ce 3e 11 97 50 40 af 4a 90 3f
       0.5247353 0.403423 3.2592204 1.1272792
000260 2f df 4c 40 f1 22 d5 bc c1 8a 65 c0 85 28 45 40
       3.201122 -0.026017638 -3.5865939 3.080598
000270 cc 08 06 3f 38 07 53 3e 6a 75 0c 3f 4b 1c 07 c1
       0.5235717 0.20608222 0.5486666 -8.444407
000280 76 82 99 3e 34 40 0e 40 28 28 26 40 67 07 a3 3e
       0.29982346 2.2226686 2.596201 0.31841585
000290 26 60 eb 3e 22 e4 e7 3e 92 54 54 c0 08 a4 1c bd
       0.45971793 0.4529124 -3.3176618 -0.03824237
0002a0 c5 a6 47 3f 59 76 42 3f 62 3d 0f 40 4c 89 0d 3f
       0.77988845 0.75961834 2.2381215 0.55287623
0002b0 2d 2b ae c0 47 17 dd 3f 54 12 b2 3e cc 03 3c be
       -5.4427705 1.7272729 0.34779608 -0.18360823
0002c0 c3 f2 bb 3e fd 0d 8e c0 bf e3 83 3f 29 eb c1 3f
       0.3670865 -4.4392076 1.0303878 1.514989
0002d0 d4 e8 75 3f 49 bc 0d 40 b3 32 89 c0 5e b6 85 40
       0.9605839 2.214617 -4.287439 4.1785116
0002e0 f0 b8 0e 40 b6 c6 8f 40 f1 8d 61 c0 e0 13 60 40
       2.2300377 4.4930067 -3.5242884 3.501213
0002f0 e6 5f b4 3f 8b 65 e1 c0 fd b4 f6 3e d3 40 18 40
       1.4091766 -7.0436454 0.48184958 2.3789566
000300 11 e2 cb 3e 09 73 45 40 d8 f1 6b c0 5f d2 62 40
       0.39820912 3.0851462 -3.686636 3.54409
000310 30 5d d6 3e b8 0e 3e c0 c3 5f 9a 3e d1 8b ee 3e
       0.4186797 -2.9696484 0.30151185 0.46591046
000320 5e d5 e5 3e ee bf fd c0 da 86 31 40 da 96 f3 3e
       0.4488935 -7.929679 2.7738557 0.47576028
000330 c6 2d 63 3f 02 f0 d8 3e 02 6c 7a 40 7d 19 b1 c0
       0.8874172 0.4237061 3.9128423 -5.5343614
000340 18 d8 a9 40 ab 3c 6c 40 23 6d db bf 6e af 5e 3e
       5.3076286 3.6912029 -1.7142681 0.21746609
000350 7c dd 17 40 87 49 45 40 bd f5 0b 3f 92 65 81 c0
       2.3728933 3.0826128 0.5467184 -4.0436487
000360 a5 42 66 40 79 81 c5 c0 41 be a7 c0 83 15 1f 40
       3.5978177 -6.172055 -5.2419744 2.485688
000370 d0 e6 c3 3e de 5a 5d 3f b0 f2 bf 3e 34 25 a0 3f
       0.38262033 0.8646678 0.37489843 1.2511353
000380 e8 c1 11 40 f3 f9 0e 40 98 6b c2 c0 c0 da e7 3e
       2.27746 2.2340057 -6.075634 0.4528408
000390 be a9 7b 40 ea 3b d3 3e 0d 2e f1 3e c4 98 90 c0
       3.9322352 0.41256648 0.47105446 -4.518648
0003a0 c9 b3 34 c0 29 be 87 40 8f 51 9c 3f e3 6f af c0
       -2.8234732 4.241963 1.221239 -5.482408
0003b0 29 68 7f 3f ee 94 98 3f 89 d2 47 40 45 d8 3f 3e
       0.9976831 1.192045 3.122225 0.18734844
0003c0 e0 fa ff 3e 1d 4b 9a 3f a9 a3 d0 3e 0b f9 16 3e
       0.4999609 1.2054173 0.40749863 0.1474344
0003d0 b9 f0 f2 3e 38 84 01 40 79 23 26 40 7a 5a 4b 40
       0.47449282 2.023695 2.595915 3.1773973
0003e0 44 6d 0c 3f 65 7e c3 3f 3b 9a 8e c0 0c 35 45 40
       0.54854226 1.5272948 -4.456327 3.0813627
0003f0 a2 60 52 40 b6 28 aa 3f 14 07 61 c0 62 c3 81 bf
       3.287148 1.3293674 -3.516057 -1.0137751

net.4.bias f4 [4]
000000 db 8d 76 40 04 55 72 40 83 2b 7b 40 90 57 76 40
       3.8524082 3.786439 3.9245307 3.8490944
